learning_models/trained_weights/cnn.pth (torch, 410582 bytes, 16 tensors)

conv_layers.conv_0.weight f4 [16, 8, 3, 3]
-0.016504113 0.087872475 -0.10893526 0.017229563 -0.015045816 0.099191435 0.10814115 -0.014055996
-0.07279888 -0.04048545 -0.09720224 -0.10634932 0.05485638 0.06797374 0.08721485 0.09589547
0.09953287 -0.07889043 -0.08357477 -0.034464777 -0.07945065 0.09707738 -0.00896448 0.014699986
0.12482826 0.0054792804 -0.14235093 0.020212904 0.20045657 0.20213833 -0.10006291 0.284291
0.051574837 -0.032803852 0.07576267 0.044594366 0.08805128 -0.11715254 0.026250392 0.06767223
0.0691014 0.07985282 -0.05481328 0.056220908 -0.05982593 -0.074061334 -0.077741146 -0.041629087
-0.099480234 -0.083437994 -0.08249178 -0.07638011 0.029370656 -0.09582257 0.086108625 0.13028753
0.022756895 -0.065465584 0.02345444 0.013809367 -0.07271371 -0.05150341 -0.08885118 0.06847304
-0.033580817 -0.029870095 -0.10856439 -0.015083208 -0.025757534 -0.04304658 0.047470883 -0.071749754
-0.020582836 0.018044384 -0.085259385 -0.08731201 0.15706111 0.12011947 0.09481806 0.025934028
-0.038696118 -0.0573751 -0.10689974 0.07291799 -0.002207645 -0.08636127 -0.05830023 -0.02877735
-0.12147681 0.101934634 0.11588909 0.051524114 -0.0930006 0.035307 0.14055115 -0.08192657
0.028054344 -0.12984657 0.0399158 0.058174495 0.006504096 -0.0407495 0.10361806 -0.028425386
-0.10186517 -0.10089117 0.043381896 0.11304335 -0.025420748 -0.08854757 0.052367583 -0.04709334
-0.05716827 -0.012133232 -0.03655413 0.06670983 0.10720454 0.03295391 -0.08318694 0.034850482
0.06924547 0.050000243 -0.046214066 -0.031932116 0.030895064 0.04135385 -0.09415217 -0.07883287
0.09676248 -0.009787778 0.011405044 0.039887358 0.073630534 -0.0036440147 0.11807149 0.0012295869
0.05068678 0.062766634 -0.07467377 0.0160122 -0.052441217 -0.020791046 -0.0023266452 0.020905567
0.03279666 0.014189858 -0.0492949 0.0886655 -0.056979973 0.06943941 0.07372725 -0.10511709
0.105701625 -0.034154944 -0.10537456 0.11834912 0.040989038 0.012345657 0.056474287 -0.04973572
0.070598036 -0.0043915566 0.011531642 0.034206115 0.030719047 -0.0012523719 -0.09078704 -0.010797805
0.10301267 0.06241367 0.0762128 -0.0065255263 0.12127426 0.043640986 -0.12150956 0.11271277
-0.17662238 0.0502287 0.15952298 -0.045320105 0.018261312 0.09592716 -0.048021387 0.13920292
-0.0075894347 0.042310342 0.120249555 0.005055225 0.06110527 -0.089353584 0.07223831 0.07164266
-0.12867348 0.04901596 -0.1076949 7.5729826e-05 -0.023412632 -0.0084275855 0.10572983 -0.045757573
0.07177086 -0.07942592 0.10480081 0.12668462 0.036245912 0.09513479 0.0605225 -0.07966647
0.1135822 -0.022265 0.043266308 -0.0024199039 -0.004318388 -0.07222315 0.097551085 0.0108298985
-0.0067749517 0.08293947 -0.034129616 0.028083272 -0.117780186 -0.061203294 0.01266002 -0.036460243
-0.10314781 -0.018530453 0.107736774 0.07337025 -0.03241539 -0.06552046 -0.056028653 -0.05131827
0.022991568 -0.043582603 -0.031710513 0.07308175 -0.07491551 -0.028802771 -0.13473237 -0.071409285
-0.049879167 -0.10075122 -0.10796213 0.006012292 -0.047013555 -0.057211798 -0.025114262 0.116054654
0.22037292 0.09779623 0.24068357 0.13123108 -0.0012166948 0.10970867 -0.061545815 0.07682393
00000000: a233 87bc 7cf6 b33d 7319 dfbd 0325 8d3c
00000010: ba82 76bc e124 cb3d 1b79 dd3d 1f4b 66bc
00000020: 9417 95bd 12d4 25bd f811 c7bd accd d9bd
00000030: 15b1 603d d135 8b3d b39d b23d d864 c43d
00000040: e4d7 cb3d 4e91 a1bd 4029 abbd f02a 0dbd
00000050: 06b7 a2bd 81d0 c63d c1df 12bc 36d8 703c
00000060: f5a5 ff3d 898b b33b 71c4 11be 8895 a53c
00000070: 7d44 4d3e 5afd 4e3e c8ed ccbd 978e 913e
00000080: 2340 533d 555d 06bd 7529 9b3d 95a8 363d
00000090: 3b54 b43d aced efbd 100b d73c bd97 8a3d
000000a0: 0985 8d3d e089 a33d e483 60bd e547 663d
000000b0: 090c 75bd 78ad 97bd c036 9fbd 4383 2abd
000000c0: 4bbc cbbd 8ae1 aabd 73f1 a8bd 2d6d 9cbd
000000d0: bb9a f03c a03e c4bd b859 b03d 186a 053e
000000e0: ab6c ba3c d212 86bd 8723 c03c af40 623c
000000f0: edea 94bd 3df5 52bd 9cf7 b5bd 983b 8c3d
00000100: 0a8c 09bd 21b2 f4bc 0257 debd 8f1f 77bc
00000110: 7701 d3bc 9c51 30bd d470 423d 89f1 92bd
00000120: 569d a8bc d1d1 933c 799c aebd a4d0 b2bd
00000130: a1d4 203e 3201 f63d f92f c23d 9973 d43c
00000140: d27f 1ebd 2702 6bbd 40ee dabd 0756 953d
00000150: 23ae 10bb 2dde b0bd 39cc 6ebd 7abe ebbc
00000160: d5c8 f8bd 1bc3 d03d 4257 ed3d f30a 533d
00000170: 1977 bebd 139e 103d a4ec 0f3e 1ec9 a7bd
00000180: 39d2 e53c 80f6 04be c07e 233d 6148 6e3d
00000190: 5020 d53b f3e8 26bd b535 d43d 5bdc e8bc
000001a0: b09e d0bd 08a0 cebd 37b1 313d 4683 e73d
000001b0: 2c3f d0bc 6e58 b5bd 647f 563d f2e4 40bd
000001c0: 4729 6abd 77ca 46bc c9b9 15bd 2a9f 883d
000001d0: 0e8e db3d aefa 063d ea5d aabd 61bf 0e3d
000001e0: 92d0 8d3d 0ecd 4c3d f64a 3dbd 40cb 02bd
000001f0: a517 fd3c a862 293d dad2 c0bd 2173 a1bd
00000200: 682b c63d eb5c 20bc 39dc 3a3c ed60 233d
00000210: 9bcb 963d 6cd0 6ebb 77cf f13d 172a a13a
00000220: f19c 4f3d cb8b 803d 90ee 98bd 042c 833c
00000230: 9acc 56bd fc51 aabc a17a 18bb 2742 ab3c
00000240: ca55 063d 947c 683c 73e9 49bd 4296 b53d
00000250: d563 69bd 4036 8e3d 50fe 963d a147 d7bd
00000260: 187a d83d 0ee6 0bbd 9ece d7bd 0661 f23d
00000270: 1fe4 273d 7045 4a3c 9551 673d afb7 4bbd
00000280: b495 903d 0ce7 8fbb 36ef 3c3c b61b 0c3d
00000290: 83a6 fb3c a126 a4ba 8eee b9bd 47e9 30bc
000002a0: 4ff8 d23d 7aa5 7f3d 7515 9c3d 15d4 d5bb
000002b0: a45e f83d e4c0 323d 01da f8bd f4d5 e63d
000002c0: 7fdc 34be 9cbc 4d3d fe59 233e 93a1 39bd
000002d0: bf98 953c 7575 c43d 13b2 44bd 368b 0e3e
000002e0: cbb0 f8bb 9c4d 2d3d 6645 f63d 4da6 a53b
000002f0: 8549 7a3d 03ff b6bd aef1 933d 63b9 923d
00000300: fbc2 03be f6c4 483d 258f dcbd 24d1 9e38
00000310: d9cb bfbc db13 0abc e288 d83d 4b6c 3bbd
00000320: 9afc 923d 0faa a2bd cfa1 d63d 9db9 013e
00000330: 9876 143d 07d6 c23d 71e6 773d 2d28 a3bd
00000340: c99d e83d 1765 b6bc 0338 313d 4097 1ebb
00000350: 4481 8dbb bbe9 93bd ddc8 c73d e36f 313c
00000360: 6a00 debb 2bdc a93d 7fcb 0bbd e40e e63c
00000370: bd36 f1bd 4eb0 7abd f96b 4f3c 5657 15bd
00000380: 293f d3bd 2dcd 97bc 19a5 dc3d 2443 963d
00000390: 00c6 04bd 972f 86bd 4d7e 65bd 1b33 52bd
000003a0: d058 bc3c ac83 32bd e2e2 01bd e2ab 953d
000003b0: 4e6d 99bd caf3 ebbc 48f7 09be 083f 92bd
000003c0: 194e 4cbd a856 cebd 401b ddbd c302 c53b
000003d0: 4991 40bd eb56 6abd 6dbc cdbc 10ae ed3d
000003e0: 70a9 613e 6449 c83d c175 763e 7161 063e
000003f0: 8179 9fba f0ae e03d 7717 7cbd dd55 9d3d

conv_layers.conv_0.bias f4 [16]
0.08398594 0.09192232 -0.027296133 -0.075992584 -0.004867237 0.09721281 0.027243638 -0.07980813
0.029590344 0.03133223 0.011185435 0.06372681 -0.043394737 0.01663234 0.13603997 0.06509989
00000000: d200 ac3d c541 bc3d 249c dfbc 00a2 9bbd
00000010: 587d 9fbb 8217 c73d 0d2e df3c 7272 a3bd
00000020: 7367 f23c 3956 003d 1d43 373c 3483 823d
00000030: aebe 31bd 8c40 883c 104e 0b3e 1753 853d

conv_layers.conv_1.weight f4 [32, 16, 3, 3]
0.0023554233 -0.08540818 -0.013443454 0.07165546 -0.000359773 0.06429698 -0.061087977 -0.050435435
0.066574246 0.060151313 0.009027159 0.06661828 0.10837937 -0.008076296 0.0282706 0.037745304
0.055101972 -0.06767728 0.11100946 0.08156151 0.07135453 0.09486119 -0.11705596 0.07806737
-0.004022265 -0.02721398 -0.014217225 -0.010853762 -0.079739004 0.0110817915 -0.12152131 -0.11888144
0.090840705 0.059565745 0.0824498 -0.04992951 0.029178306 0.13559376 -0.028630897 0.06967358
0.029310476 -0.049882304 0.064220004 -0.06049377 -0.057184737 -0.12280099 0.13581271 0.022004386
0.0068165604 0.12124649 -0.02307481 -0.010213788 0.10142636 -0.017870152 0.09689917 -0.023386756
-0.00052457396 0.08170695 -0.03366576 -0.009080459 -0.06420926 -0.057957012 0.030065676 -0.033373445
0.03322926 0.10510781 0.08509448 -0.0297108 0.03651336 -0.001340456 0.06300502 -0.07826704
0.063484356 -0.00665785 -0.038425393 -0.022813894 0.0032869058 -0.016673563 -0.05212346 0.012434589
0.08013901 -0.027854279 0.049812734 -0.058755063 -0.003906112 0.0146844 -0.012239834 0.042668026
0.024574654 0.0013665942 0.051198717 0.018391544 -0.04554637 -0.08212844 -0.0009906277 0.09480307
0.028521094 0.014308459 -0.06075306 -0.056539476 -0.053924568 0.09030052 -0.0354776 0.08339227
0.07481024 0.07508639 0.056903377 0.05051053 0.086181715 -0.044045135 0.0086312145 -0.08173879
-0.036865175 0.05979413 -0.004995406 -0.04093666 0.01041243 0.041829355 0.059773702 -0.005565463
0.058207143 0.037426792 0.04692252 0.047190435 0.062907495 0.10351357 0.057970826 -0.0329428
0.04589596 0.048540242 -0.05932567 0.042970162 -0.0019854205 -0.074168995 0.04635743 -0.057157658
0.01083507 0.04120904 -0.010455537 -0.060567115 -0.032687467 0.006103278 0.05764112 0.024156852
-0.024120655 0.06620183 0.07223062 -0.027044 0.0013057129 -0.0045924047 -0.017551735 0.09932034
-0.08076667 0.03606773 0.017489376 -0.05992354 -0.020389024 -0.022074534 0.033431195 -0.075282596
-0.05181251 -0.013702342 0.0463738 -0.04816448 0.0020243237 0.0671664 -0.026905576 -0.040147167
0.0035620825 -0.0029800236 -0.098254725 0.050736733 -0.11804109 0.06844871 0.13108875 0.12616883
-0.034823023 0.092021674 0.052030366 -0.01692119 0.020284051 -0.013952205 -0.0002606928 0.00036436124
-0.09376859 0.114460506 -0.06417474 0.024691476 -0.048096836 -0.06639837 -0.06602328 0.05522242
0.05692664 -0.122508824 0.05984037 -0.087669946 -0.025810992 0.03573306 0.09447348 -0.022074223
-0.062901065 0.03475824 0.06988263 0.018396556 -0.06643178 0.04332297 0.12233234 0.020074073
-0.039912555 -0.033637863 -0.025552815 -0.066366434 -0.08439647 -0.019723492 -0.018509183 0.033783577
-0.044013858 0.060701277 0.022393182 -0.06649904 0.002431825 -0.018527571 0.09633587 0.008202929
-0.07598254 -0.022427762 -0.086337656 0.061384857 -0.06191629 0.06292489 -0.11059683 0.09058278
0.04287909 0.014288756 0.031373464 -0.007093356 -0.0761616 0.08453317 0.012098775 0.093641
-0.038462378 -0.051542997 0.06666663 0.0546953 -0.05111634 -0.016856046 0.14974286 0.018833572
-0.079173714 0.01896375 -0.039515726 0.004380262 -0.053752076 -0.06539144 -0.0010241892 0.09093475
00000000: 725d 1a3b 7cea aebd ef41 5cbc 19c0 923d
00000010: ea9f bcb9 23ae 833d 6337 7abd 6395 4ebd
00000020: 1458 883d 3961 763d a6e6 133c 2a6f 883d
00000030: 01f6 dd3d 7152 04bc bf97 e73c d29a 1a3d
00000040: 9bb2 613d 639a 8abd ee58 e33d b909 a73d
00000050: 5322 923d 9546 c23d 09bb efbd c9e1 9f3d
00000060: 34cd 83bb daef debc 5def 68bc fad3 31bc
00000070: 344e a3bd 6790 353c 2ae0 f8bd 1d78 f3bd
00000080: b10a ba3d 36fb 733d 71db a83d e382 4cbd
00000090: 5807 ef3c 17d9 0a3e 588b eabc 06b1 8e3d
000000a0: 861c f03c 6351 4cbd c785 833d 51c8 77bd
000000b0: 8b3a 6abd 167f fbbd 7d12 0b3e 8b42 b43c
000000c0: 745d df3b 1450 f83d 6207 bdbc bb57 27bc
000000d0: a0b8 cf3d 6d64 92bc 1273 c63d 9595 bfbc
000000e0: 9083 09ba f955 a73d 1ce5 09bd 35c6 14bc
000000f0: 2580 83bd 5564 6dbd 4b4c f63c 98b2 08bd
00000100: 681b 083d c342 d73d 0446 ae3d 1064 f3bc
00000110: 088f 153d 3db2 afba c708 813d 784a a0bd
00000120: 1604 823d 182a dabb f263 1dbd 34e4 babc
00000130: 2169 573b ff96 88bc 697f 55bd 72ba 4b3c
00000140: ec1f a43d a82e e4bc 7008 4c3d 26a9 70bd
00000150: affd 7fbb d696 703c 9689 48bc abc4 2e3d
00000160: c950 c93c 4b1f b33a bfb5 513d dda9 963c
00000170: d58e 3abd f532 a8bd f3d7 81ba 1d28 c23d
00000180: 12a5 e93c 076e 6a3c 33d8 78bd f095 67bd
00000190: 02e0 5cbd 7bef b83d f650 11bd 91c9 aa3d
000001a0: 1c36 993d e5c6 993d 8413 693d 21e4 4e3d
000001b0: 0a80 b03d ac68 34bd f069 0d3c ab66 a7bd
000001c0: f0ff 16bd b1ea 743d 81b0 a3bb 33ad 27bd
000001d0: e698 2a3c 4255 2b3d 45d5 743d 7d5e b6bb
000001e0: 9d6a 6e3d d64c 193d d431 403d c24a 413d
000001f0: a5d5 803d ecfe d33d d172 6d3d 08ef 06bd
00000200: 67fd 3b3d 22d2 463d 79ff 72bd 7b01 303d
00000210: d41d 02bb eae5 97bd 4ae1 3d3d 261e 6abd
00000220: 9485 313c cfca 283d b34d 2bbc 3915 78bd
00000230: 4be3 05bd 02fe c73b 1819 6c3d 97e4 c53c
00000240: ae98 c5bc d394 873d a6ed 933d 618b ddbc
00000250: 7424 ab3a e27b 96bb a8c8 8fbc 7668 cb3d
00000260: ff68 a5bd c2bb 133d e145 8f3c 6372 75bd
00000270: e206 a7bc a7d5 b4bc 26ef 083d c32d 9abd
00000280: 5b39 54bd ca7f 60bc 74f2 3d3d 1e48 45bd
00000290: 84aa 043b 8a8e 893d 1569 dcbc 5b71 24bd
000002a0: d471 693b 804c 43bb c639 c9bd 52d1 4f3d
000002b0: 87bf f1bd d62e 8c3d 213c 063e 6732 013e
000002c0: 96a2 0ebd dc75 bc3d cb1d 553d 4f9e 8abc
000002d0: bd2a a63c ca97 64bc 98ad 88b9 bd07 bf39
000002e0: bf09 c0bd 456a ea3d 0c6e 83bd c745 ca3c
000002f0: 3001 45bd defb 87bd 3737 87bd e730 623d
00000300: e92b 693d e8e5 fabd 2d1b 753d 4d8c b3bd
00000310: 9371 d3bc d45c 123d 507b c13d 00d5 b4bc
00000320: 46d2 80bd a85e 0e3d a01e 8f3d 60b4 963c
00000330: 630d 88bd 6d73 313d 6189 fa3d 6272 a43c
00000340: 597b 23bd dbc7 09bd 2354 d1bc 20eb 87bd
00000350: 0ed8 acbd 2993 a1bc 92a0 97bc a660 0a3d
00000360: e047 34bd e7a1 783d e871 b73c a630 88bd
00000370: 415f 1f3b 22c7 97bc be4b c53d 9465 063c
00000380: bc9c 9bbd 6dba b7bc ccd1 b0bd b06e 7b3d
00000390: f09b 7dbd c4de 803d 9780 e2bd 7783 b93d
000003a0: fca1 2f3d 631b 6a3c 7681 003d 626f e8bb
000003b0: 9dfa 9bbd ba1f ad3d f139 463c dac6 bf3d
000003c0: ba8a 1dbd c01e 53bd 8488 883d 2e08 603d
000003d0: 5e5f 51bd b115 8abc 3156 193e dd48 9a3c
000003e0: d425 a2bd de59 9b3c 3edb 21bd 4d88 8f3b
000003f0: 232b 5cbd f3eb 85bd 163e 86ba 003c ba3d

conv_layers.conv_1.bias f4 [32]
0.07587856 -0.029652758 0.0071798735 0.03650722 -0.028234586 0.026581217 -0.03607597 0.072667465
0.079077095 0.0925504 0.032237813 -0.032399576 0.08533732 0.087336354 -0.0042705964 0.030648202
0.05131992 -0.03558517 0.012028504 -0.04474454 0.07959738 0.021960974 -0.064128764 0.0040029455
0.05244709 0.09944319 -0.0114760995 0.000108343986 -0.034437474 0.032738715 0.08084642 0.06186718
00000000: 3866 9b3d 57ea f2bc 2545 eb3b 9888 153d
00000010: 384c e7bc dac0 d93c 65c4 13bd aed2 943d
00000020: 2cf3 a13d 108b bd3d cc0b 043d 6bb5 04bd
00000030: 55c5 ae3d 67dd b23d 5cf0 8bbb f011 fb3c
00000040: d634 523d c1c1 11bd 3413 453c 0d46 37bd
00000050: f303 a33d 80e7 b33c f155 83bd 242b 833b
00000060: c3d2 563d dfa8 cb3d 4006 3cbc bc36 e338
00000070: 4f0e 0dbd 0819 063d cf92 a53d 7168 7d3d

conv_layers.conv_2.weight f4 [64, 32, 3, 3]
0.054922946 -0.039570704 0.04256355 -0.06979446 -0.03498358 0.023203649 0.025750658 0.05557128
0.00118543 0.047262434 0.15281513 -0.044024237 -0.02465363 0.037463594 -0.023702567 -0.0990523
-0.074706756 0.06750082 -0.010218667 -0.08966268 -0.03249543 0.015545429 -0.05482522 0.024306724
-0.018091554 0.018377697 -0.027424226 0.05943924 0.06989543 0.032324694 0.06981739 0.028247854
0.05963572 0.078309216 0.046341117 -0.0038240997 0.0676064 0.02182163 0.018614585 0.040683195
0.03755059 0.054593243 0.026293853 0.035746597 0.020275645 0.08258095 -0.027565084 -0.012499641
0.104152456 0.019784722 0.03918156 0.059479225 0.078267 0.02310439 0.055923227 0.037141565
-0.06470583 -0.04937146 -0.010781698 -0.073353395 -0.10440068 0.012177328 0.029292516 0.04057875
0.05755171 -0.04617778 0.036700606 0.06570822 -0.023292443 0.06416927 0.052352615 -0.024096223
0.07131482 0.0034175375 0.031792738 0.016709765 0.018068202 0.018790685 0.009744338 0.03074881
-0.05645759 0.085364856 -0.02290215 -0.05525082 -0.0056298897 -0.007992244 0.033754252 -0.0021931333
-0.0027121105 1.4637041e-05 -0.009863886 -0.017696897 0.046453994 0.0075379657 -0.036957152 0.025292037
0.03837925 -0.02616441 0.069927625 -0.011857709 0.054073274 -0.010358715 0.03598878 0.09468578
-0.021301012 0.076453835 0.050094184 -0.038535986 -0.004768231 -0.062996484 -0.015904414 -0.047120538
0.03352357 -0.040946547 -0.002761226 0.042208746 -0.04348435 0.037577707 0.043895222 -0.014741992
0.039883163 -0.05914675 0.04507179 -0.042603783 0.0054601575 -0.017320875 -0.027455667 0.04271745
-0.051530425 0.06279304 0.09204694 -0.04577083 0.031137917 -0.037265375 0.032083426 0.027600406
-0.11425954 -0.001346145 -0.003396447 -0.0052677686 -0.048028447 0.056880504 0.0008742029 -0.062937
0.008722161 0.013860097 0.04464412 0.07355105 0.0555105 0.018800728 0.06941299 0.06549712
0.000825926 0.028165432 -0.037224945 0.032957744 -0.047565766 0.019852154 0.00037820966 0.040014505
-0.01842838 -0.03738673 -0.044573765 -0.049788322 0.027174177 -0.011091819 0.03750531 0.012268913
0.08213694 -0.05565381 0.019891297 0.044998232 0.048505917 -0.059443615 0.016420254 0.05471379
-0.03132815 -0.049496133 -0.012532997 0.057431985 0.06809787 0.06548889 -0.047498293 0.054715298
0.07142925 -0.07656503 0.025189992 -0.010784397 -0.025883991 0.020789541 0.0335679 0.014935838
0.028205281 -0.028774368 0.07446305 0.011686874 0.01465714 0.032295357 0.04660676 0.08236441
0.07193615 0.013518326 0.15244547 0.032133345 0.06169839 0.07723213 0.028533613 -0.08439281
-0.03048311 -0.003715981 -0.08859621 0.06270083 -0.037582997 0.02561201 0.055876903 -0.015386685
0.00272932 -0.00994977 -0.057249006 0.08558643 0.061227914 -0.055237297 0.08010016 -0.0024088232
-0.041210588 -0.03933339 -0.056416903 -0.0043145926 -0.027839249 -0.010931717 0.006521483 0.033023927
-0.042199742 0.026888615 -0.0842728 0.03132194 -0.044132482 -0.023967618 0.016730592 -0.008643124
0.00064652093 0.02792307 -0.007878884 -0.020071896 0.01559968 -0.05591971 0.012004369 0.043323908
0.028269356 0.060078416 0.03882201 -0.03249738 0.07965831 -0.06199195 -0.035002697 0.09388191
00000000: e2f6 603d e414 22bd 1e57 2e3d 66f0 8ebd
00000010: f14a 0fbd 9415 be3c 0bf3 d23c b69e 633d
00000020: 6e60 9b3a 4196 413d 927b 1c3e c252 34bd
00000030: 69f6 c9bc 6d73 193d e32b c2bc efdb cabd
00000040: dbff 98bd df3d 8a3d 326c 27bc 11a1 b7bd
00000050: ee19 05bd 41b2 7e3c 6990 60bd e51e c73c
00000060: bd34 94bc d38c 963c c5a8 e0bc 8f76 733d
00000070: 5625 8f3d e666 043d 6bfc 8e3d 0b68 e73c
00000080: 9644 743d 9560 a03d 2fd0 3d3d bf9d 7abb
00000090: 3975 8a3d 46c3 b23c 9d7d 983c 6ca3 263d
000000a0: a6ce 193d 2a9d 5f3d 3566 d73c 066b 123d
000000b0: 1c19 a63c 3320 a93d 2cd0 e1bc 4bcb 4cbc
000000c0: e24d d53d 9213 a23c d87c 203d 7da0 733d
000000d0: 734a a03d 6b45 bd3c c10f 653d c121 183d
000000e0: 7d84 84bd ba39 4abd b8a5 30bc 4e3a 96bd
000000f0: 06d0 d5bd 6a83 473c dcf6 ef3c e735 263d
00000100: 58bb 6b3d e924 3dbd 6053 163d 0892 863d
00000110: cbcf bebc 2e6b 833d b26f 563d 7165 c5bc
00000120: 810d 923d c4f8 5f3b 1a39 023d ebe2 883c
00000130: c403 943c ecee 993c b7a6 1f3c eee4 fb3c
00000140: 1340 67bd c5d3 ae3d 4a9d bbbc af4e 62bd
00000150: f07a b8bb e7f1 02bc e641 0a3d acba 0fbb
00000160: aabd 31bb 9d91 7537 239c 21bc 15f9 90bc
00000170: 8b46 3e3d 0a01 f73b 6260 17bd 3f31 cf3c
00000180: 8f33 1d3d bf56 d6bc 3736 8f3d d646 42bc
00000190: f07b 5d3d 9ab7 29bc f968 133d 9eea c13d
000001a0: 767f aebc d493 9c3d 8f2f 4d3d e9d7 1dbd
000001b0: d23e 9cbb 4d04 81bd f949 82bc 7701 41bd
000001c0: 0350 093d 91b7 27bd aff5 34bb 14e3 2c3d
000001d0: a51c 32bd 15eb 193d 7acb 333d 6588 71bc
000001e0: 875c 233d dd43 72bd 339d 383d 4e81 2ebd
000001f0: 1feb b23b 82e4 8dbc b5ea e0bc 7ef8 2e3d
00000200: 9111 53bd a399 803d 1b83 bc3d 327a 3bbd
00000210: f214 ff3c 94a3 18bd e969 033d 3f1a e23c
00000220: e800 eabd 2271 b0ba ed96 5ebb 3f9d acbb
00000230: 7ab9 44bd 88fb 683d c32a 653a 1de5 80bd
00000240: 65e7 0e3c 7615 633c c1dc 363d efa1 963d
00000250: fa5e 633d fc03 9a3c 6628 8e3d 5b23 863d
00000260: f582 583a 31bb e63c 2f79 18bd b3fe 063d
00000270: 52d4 42bd fca0 a23c 714a c639 40e6 233d
00000280: 1df7 96bc d422 19bd fb92 36bd d7ee 4bbd
00000290: 619c de3c 76ba 35bc 2b9f 193d 8d03 493c
000002a0: 6937 a83d 40f5 63bd 13f3 a23c 1150 383d
000002b0: 24ae 463d 267b 73bd c583 863c 911b 603d
000002c0: f251 00bd 75bc 4abd 3357 4dbc cd3d 6b3d
000002d0: e576 8b3d 0a1f 863d 928d 42bd 261d 603d
000002e0: 8049 923d 20ce 9cbd 3e5b ce3c 0ab1 30bc
000002f0: aa0a d4bc d44e aa3c 7f7e 093d 72b5 743c
00000300: c30e e73c 39b8 ebbc 1580 983d 4d7a 3f3c
00000310: 8024 703c 2348 043d bbe6 3e3d acae a83d
00000320: 4353 933d f87b 5d3c aa1a 1c3e 419e 033d
00000330: 73b7 7c3d e12b 9e3d 53bf e93c 23d6 acbd
00000340: b7b7 f9bc d187 73bb ee71 b5bd 4b69 803d
00000350: a1f0 19bd 47d0 d13c 2edf 643d 6f18 7cbc
00000360: 64de 323b 5c04 23bc ef7d 6abd f047 af3d
00000370: 1fca 7a3d 8140 62bd 8d0b a43d 59dd 1dbb
00000380: 6fcc 28bd 0c1c 21bd 6915 67bd 6d61 8dbb
00000390: 230f e4bc f21a 33bc 2ab2 d53b 1944 073d
000003a0: a3d9 2cbd 8345 dc3c 3897 acbd 6f4b 003d
000003b0: 43c4 34bd bd57 c4bc 980e 893c e49b 0dbc
000003c0: 497b 293a ecbe e43c 6f16 01bc d16d a4bc
000003d0: cd95 7f3c 110c 65bd f9ad 443c 6974 313d
000003e0: 2395 e73c c914 763d d403 1f3d f91b 05bd
000003f0: e523 a33d 45eb 7dbd fd5e 0fbd 2945 c03d

conv_layers.conv_2.bias f4 [64]
-0.03564962 -0.020116368 -0.026037192 0.03370245 0.02514524 -0.031594552 0.012965789 0.010678092
-0.005133291 0.0011563727 0.055231728 0.041584343 0.008048589 0.008194109 -0.02595195 -0.023867153
-0.035807017 0.020593809 -0.033750445 0.038359717 0.03315721 -0.05208055 0.020265816 -0.004986107
-0.032571733 0.032424588 0.013604501 0.030414488 -0.00891801 -0.021604523 -0.027726866 0.018115588
0.0010129636 0.030179156 0.039095785 0.005650692 0.018482959 -0.011645007 -0.024261655 0.017359845
0.029162155 -0.046179358 0.046401743 -0.045260854 0.014232036 0.026744429 0.06666222 0.057072654
-0.04750037 0.031413827 0.04456215 -0.032991756 0.01668914 -0.030280855 0.027571175 0.018196287
0.00768608 0.03215784 0.06395547 -0.042519648 -0.03445444 0.07654228 0.0064249993 -0.053265475
00000000: 5605 12bd 15cb a4bc f34b d5bc 950b 0a3d
00000010: 64fd cd3c 4a69 01bd 766e 543c 2af3 2e3c
00000020: 2a35 a8bb 6e91 973a aa3a 623d 5854 2a3d
00000030: 3bde 033c 9640 063c 2f99 d4bc 0c85 c3bc
00000040: 61aa 12bd 59b4 a83c e83d 0abd 141f 1d3d
00000050: dbcf 073d 6a52 55bd 7f04 a63c 7f62 a3bb
00000060: f069 05bd a5cf 043d 6ae5 5e3c ce27 f93c
00000070: d81c 12bc f8fb b0bc 7423 e3bc 2467 943c
00000080: 6bc5 843a 473a f73c e722 203d 7129 b93b
00000090: 9369 973c b3ca 3ebc 61c0 c6bc 3c36 8e3c
000000a0: 79e5 ee3c 9126 3dbd c10f 3e3d 7263 39bd
000000b0: 7c2d 693c 2217 db3c 3486 883d 04c5 693d
000000c0: bf8f 42bd c9ab 003d cd86 363d 5d22 07bd
000000d0: aab7 883c 8e0f f8bc f2dc e13c 6110 953c
000000e0: 83db fb3b f0b7 033d 16fb 823d 1529 2ebd
000000f0: 1920 0dbd 33c2 9c3d cd88 d23b e62c 5abd

conv_layers.conv_3.weight f4 [64, 64, 3, 3]
-0.017460037 0.004032402 0.026365697 9.294022e-05 0.08888282 0.04839067 0.03973891 0.017258978
0.023218174 -0.035670616 -0.008871462 0.0034094376 -0.091633566 0.03409727 0.07143808 -0.00081749493
-0.0008078886 0.077342816 -0.0008962998 0.031695947 -0.0665995 -0.083864115 0.108126104 0.015005895
-0.0056795254 -0.019865425 0.06993258 0.012634607 0.008310718 -0.023232877 -0.03700012 -0.0011406122
0.019497186 -0.066081785 -0.0032846427 -0.032483786 0.001194062 0.03346541 0.06616437 -0.043006275
0.03311376 0.07299915 -0.0616193 0.057208437 -0.017355846 -0.02918077 0.041212916 -0.03912699
0.03723159 -0.014502756 -0.020867225 -0.013235469 0.011738574 -0.0023859888 0.07262892 -0.0029377495
0.011304493 0.11487383 0.045380384 0.02554921 0.016628169 0.008018472 -0.040670022 0.10960681
0.011454765 -0.041828286 -0.035082288 0.006664893 0.0023962785 -0.06691793 0.06829567 0.07681507
-0.054677535 -0.0016832184 -0.017750045 0.07556625 0.10598237 -0.08051753 0.085169934 -0.008138704
0.014916283 -0.012919171 -0.13736553 0.008261652 -0.0058783647 0.25348315 0.025715135 0.07865287
0.18998867 -0.010172166 -0.062956795 0.05133403 -0.004088478 -0.077359706 0.16721402 0.0069933897
0.03585435 0.050425928 -0.011316313 -0.042416178 0.06673598 -0.04020923 -0.01570821 0.06108979
0.0092893895 -0.009866464 0.035396703 0.0151929 0.05792797 -0.0028740054 0.03667473 0.14920774
-0.014875018 0.058024757 0.023650602 -0.0071911816 0.038990673 -0.022920812 0.0008385954 -0.00455054
0.0517994 -0.0024017459 -0.015876167 -0.020248422 0.047220703 0.036929477 0.01867926 -0.0096691875
0.052848622 0.10891104 -0.002740663 0.03842966 0.0877867 -0.023919227 -0.02693823 0.04975397
-0.031178199 0.018825013 0.03523813 0.005712826 0.044230636 -0.0045111687 0.05606326 0.037148856
-0.085678026 0.01576443 -0.05518839 -0.09786417 0.065068774 0.05094334 -0.009820393 0.03788486
0.008583392 0.016050182 -0.016797828 -0.0143495295 0.013270215 -0.015831208 -0.021512723 -0.033934895
0.005295289 0.019181862 -0.0307163 -0.026269898 0.0024351291 0.0153735615 0.020687308 0.007891525
-0.0074622296 0.010999005 -0.03664252 0.015124508 0.04706518 -0.004155905 -0.04118468 0.03841803
0.06684038 0.012257668 0.0019792179 0.057251092 0.027762141 0.024341008 0.03331615 0.01275508
0.030326936 0.036350235 -0.018269194 -0.004970968 0.042480413 0.052939788 0.043099504 -0.0310146
0.05486018 0.15176407 -0.039541896 0.023868565 0.0168868 0.0107834395 -0.039433926 0.052644633
0.028802112 0.02054112 0.13970965 0.03755055 0.02623899 -0.021990443 -0.019008456 -0.05180055
-0.06147417 0.016311113 -0.11218597 -0.05699282 0.05362522 -0.0028745246 0.01064055 0.03303049
-0.03656232 0.049798653 -0.026258476 -0.058236327 0.13249454 0.022321178 -0.035577863 0.07508262
0.025561534 0.0066922316 -0.021609157 0.074239686 0.056370895 -0.004144087 0.04612404 0.03919958
0.046249904 -0.10621654 0.039977733 -0.04156233 -0.016973829 -0.022777807 -0.014391359 -0.0007286519
0.0058390386 0.018280473 -0.018369477 -0.03722901 0.019184614 -0.08066716 -0.0043665576 0.15185444
-0.0823257 0.07958091 0.0654368 0.0033644908 -0.03491721 0.044331074 0.013266593 -0.06338716
00000000: 5a08 8fbc 3d22 843b e0fc d73c e7e8 c238
00000010: 3208 b63d 4c35 463d 44c5 223d b362 8d3c
00000020: 0a34 be3c 5a1b 12bd 9c59 11bc df70 5f3b
00000030: 61aa bbbd 94a9 0b3d 214e 923d 284d 56ba
00000040: 7cc8 53ba e965 9e3d a9f5 6aba 9cd3 013d
00000050: 5265 88bd f3c0 abbd 3871 dd3d 49db 753c
00000060: 501b babb d1bc a2bc d038 8f3d 6201 4f3c
00000070: ae29 083c e052 bebc 708d 17bd 9880 95ba
00000080: 90b8 9f3c e355 87bd 2943 57bb b80d 05bd
00000090: 1282 9c3a 0713 093d 2f81 873d 5927 30bd
000000a0: 4ba2 073d 9480 953d 8564 7cbd 6553 6a3d
000000b0: d92d 8ebc 830c efbc e0ce 283d 9f43 20bd
000000c0: 2780 183d f89c 6dbc bef1 aabc 95d9 58bc
000000d0: 2653 403c 405e 1cbb 79be 943d 4287 40bb
000000e0: 7b36 393c f842 eb3d c8e0 393d 944c d13c
000000f0: cc37 883c e95f 033c 9c95 26bd 8979 e03d
00000100: c4ac 3b3c 2354 2bbd 72b2 0fbd 2d65 da3b
00000110: e20a 1d3b 450c 89bd 9ade 8b3d 3851 9d3d
00000120: 8df5 5fbd 709f dcba 8b68 91bc 7ac2 9a3d
00000130: 490d d93d 60e6 a4bd 936d ae3d 3358 05bc
00000140: 6d63 743c eeaa 53bc 8da9 0cbe e15b 073c
00000150: 4c9f c0bb 8bc8 813e 8ca8 d23c c214 a13d
00000160: 648c 423e 28a9 26bc 7eef 80bd a243 523d
00000170: a4f8 85bb c46e 9ebd 273a 2b3e ce28 e53b
00000180: 03dc 123d 6b8b 4e3d 0f68 39bc 96bc 2dbd
00000190: e0ac 883d 6fb2 24bd 81ae 80bc 4a39 7a3d
000001a0: 8632 183c f3a6 21bc 22fc 103d a4eb 783c
000001b0: e145 6d3d cf59 3cbb 3e38 163d eac9 183e
000001c0: 59b6 73bc 5eab 6d3d e8be c13c 01a4 ebbb
000001d0: afb4 1f3d 6dc4 bbbc 2fd5 5b3a b21c 95bb
000001e0: 9c2b 543d 9c66 1dbb bc0e 82bc 05e0 a5bc
000001f0: 7f6a 413d 5d43 173d 3f05 993c 836b 1ebc
00000200: cc77 583d c00c df3d b29c 33bb 6b68 1d3d
00000210: 83c9 b33d 41f2 c3bc 90ad dcbc d2ca 4b3d
00000220: 6c69 ffbc ea36 9a3c db55 103d a832 bb3b
00000230: 2f2b 353d 6dd2 93bb 97a2 653d 6629 183d
00000240: f677 afbd 6824 813c 390d 62bd 036d c8bd
00000250: c742 853d f7a9 503d b7e5 20bc 282d 1b3d
00000260: 5ba1 0c3c ac7b 833c 999b 89bc 4a1a 6bbc
00000270: 516b 593c 73b0 81bc 733b b0bc 51ff 0abd
00000280: 1b84 ad3b 4823 9d3c c0a0 fbbc f833 d7bc
00000290: b096 1f3b 64e1 7b3c 6e78 a93c 744b 013c
000002a0: b885 f4bb 2c35 343c 7816 16bd c9cc 773c
000002b0: 6bc7 403d 422e 88bb 44b1 28bd 395c 1d3d
000002c0: 9ce3 883d 63d4 483c c4b5 013b 1f80 6a3d
000002d0: 6e6d e33c cb66 c73c 8476 083d affa 503c
000002e0: 3270 f83c fce3 143d 47a9 95bc 80e3 a2bb
000002f0: f1ff 2d3d 64d7 583d 1b89 303d 5512 febc
00000300: 11b5 603d 0a68 1b3e aff6 21bd 0288 c33c
00000310: 3056 8a3c 06ad 303c 7885 21bd e6a1 573d
00000320: 68f2 eb3c da45 a83c 0c10 0f3e 9bce 193d
00000330: 26f3 d63c 4d25 b4bc 9fb7 9bbc d02c 54bd
00000340: 57cc 7bbd e29e 853c c2c1 e5bd 4e71 69bd
00000350: 1ea6 5b3d 8562 3cbb b455 2e3c fb4a 073d
00000360: 5fc2 15bd acf9 4b3d 041c d7bc 3789 6ebd
00000370: a6ac 073e e7da b63c 18ba 11bd ebc4 993d
00000380: 6c66 d13c 824a db3b b005 b1bc fa0a 983d
00000390: 2be5 663d 1fcb 87bb 90ec 3c3d bd8f 203d
000003a0: 8a70 3d3d 0f88 d9bd b1bf 233d 433d 2abd
000003b0: b30c 8bbc 8698 babc bcc9 6bbc 0003 3fba
000003c0: 6855 bf3b eec0 953c 967b 96bc 727d 18bd
000003d0: 0d29 9d3c d334 a5bd 5715 8fbb bb7f 1b3e
000003e0: 609a a8bd 51fb a23d bb03 863d ca7e 5c3b
000003f0: 5905 0fbd 8094 353d 205c 593c 21d1 81bd

conv_layers.conv_3.bias f4 [64]
-0.0264189 0.024061413 0.047907345 0.012794987 -0.027284916 -0.012196146 -0.005209592 -0.033718668
-0.044522155 -0.0095076915 0.055756614 0.025461838 -0.034132272 0.014121966 0.030938296 0.032760173
0.042201854 0.022056423 0.04045424 0.05961716 0.0050003463 -0.02775047 0.015684709 0.0090831425
-0.0015663477 0.02714791 -0.03456326 0.0053880173 -0.036344208 -0.021080092 -0.03825467 -0.03278652
-0.024015449 0.03478184 -0.02413466 0.04304381 -0.026032275 0.012067436 0.03558108 -0.0017241095
-0.0015110887 0.043259636 -0.0018305659 -0.031482797 0.039592978 0.034946345 -0.027800685 0.015838604
0.043946765 -0.0468227 0.0014125224 -0.007960113 0.0054479735 0.044017896 0.021939533 -0.02767134
-0.0070383344 0.03000305 0.022786712 0.03378962 -0.03757915 0.015018542 -0.046375785 -0.035513874
00000000: 736c d8bc 711c c53c 7e3a 443d 11a2 513c
00000010: 9e84 dfbc 58d2 47bc 3ab5 aabb 961c 0abd
00000020: dd5c 36bd 26c6 1bbc 0c61 643d 5895 d03c
00000030: 48ce 0bbd d25f 673c 4f72 fd3c 882f 063d
00000040: dadb 2c3d acaf b43c 58b3 253d 2031 743d
00000050: f2d9 a33b f454 e3bc 387d 803c 76d1 143c
00000060: e84d cdba 4b65 de3c 3492 0dbd f78d b03b
00000070: aadd 14bd 28b0 acbc eeb0 1cbd 284b 06bd
00000080: 0cbc c4bc 6777 0e3d 0db6 c5bc b54e 303d
00000090: a341 d5bc 7fb6 453c 77bd 113d 84fb e1ba
000000a0: b90f c6ba 0431 313d 99ef efba 1bf4 00bd
000000b0: 3f2c 223d e623 0f3d 43be e3bc f6bf 813c
000000c0: 8601 343d 29c9 3fbd 6324 b93a 226b 02bc
000000d0: ea84 b23b 1c4c 343d 89ba b33c 02af e2bc
000000e0: d4a1 e6bb f5c8 f53c 33ab ba3c fc66 0a3d
000000f0: 98ec 19bd 5510 763c 89f4 3dbd ff76 11bd

linear_layers.0.weight f4 [64, 576]
-0.032381203 0.015240314 0.030194988 -0.11755128 0.07576418 0.026099846 -0.025284668 0.028608814
-0.029210936 0.0063757654 0.014370532 -0.0014537799 -0.04627225 0.026776697 0.039274488 -0.033687003
0.031707957 0.035947584 0.024507485 -0.054887205 -0.037460923 0.025850005 -0.10946177 0.0008745244
-0.007919401 -0.021001816 -0.03036512 -0.022397485 -0.005729709 0.018362384 -0.030551594 -0.017562062
-0.03546355 -0.0061552674 0.0036813207 -0.03613512 5.9602193e-05 -0.041915245 -0.032427076 0.044541337
-0.012124542 -0.031522393 0.021001296 0.0017725461 0.019753378 0.01386236 -0.008847681 -0.002013543
-0.03389532 0.02592521 -0.0117461225 0.015212719 0.017051714 0.021777354 -0.05989772 0.001346141
-0.0291539 0.0008533778 -4.95059e-05 -0.01252399 0.0350829 0.02266706 -0.03148869 0.05039213
-0.035321333 0.021003049 0.045837462 -0.0057105105 0.023900544 -0.012487406 0.040245123 0.004398744
-0.02510596 0.005515949 -0.027802842 -0.051199485 0.0065928902 0.0058613014 0.043214332 -0.0108915875
-0.020564005 -0.020860452 0.041464478 -0.017421836 -0.012645821 0.044381052 0.022054458 -0.018970046
0.029934002 -0.0322489 -0.0025525207 -0.06044443 0.0009795101 0.049604587 -0.06890008 -0.00911966
-0.0052963803 0.03235822 0.038529407 -0.010492068 0.047485627 0.00048316995 -0.023372801 -0.00238527
-0.030137537 -0.025699556 0.022787102 -0.024529025 -0.07280417 -0.017658843 -0.024370322 0.016980601
-0.037369356 0.017415136 0.03785885 -0.04362534 0.014990007 -0.053224936 -0.020544946 0.039852176
-0.048350032 -0.016042812 -0.009230673 0.018526603 -0.00049087836 -0.009568745 -0.019778457 -0.016858973
-0.021645436 0.04245177 -0.01439508 0.050738852 -0.027409252 0.022850722 3.9602222e-05 -0.008188012
0.022283273 0.03294096 -0.03666307 -0.0062447162 -0.025077308 0.006630579 0.014563176 -0.04916337
0.047582325 0.034168124 -0.0047065555 0.029686091 0.02271573 -0.030915711 0.013201019 -0.013996187
0.020677136 0.062142085 -0.053055435 -0.05455831 -0.0025355967 -0.048732806 0.009009153 0.014185233
-0.026348531 0.039553065 -0.026096607 0.015530626 0.015191082 0.0067433584 0.040318653 -0.0058146245
-0.0104834 0.021081489 0.04426633 0.03428331 -0.09429994 0.012822892 0.008508631 -0.02543415
0.04533249 0.011288648 -0.037083674 0.019763948 -0.011514505 -0.019953892 0.002790065 -0.009071929
0.0345564 -0.037456907 -0.034924395 0.038055602 0.030835235 -0.0043097036 0.037640132 0.026125468
-0.05689498 0.03353293 -0.0037409735 0.018612389 -0.029893057 0.024248147 0.02974667 -0.03878663
-0.027721941 0.026151735 0.013245072 0.04133294 0.017600447 0.0024991669 0.03743835 -0.009993713
0.012366686 0.010761902 0.027969945 0.0071958713 -0.027960857 0.0050009973 0.032975655 0.023897301
0.06616446 -0.045417253 0.0067808335 0.024155524 -0.06323431 -0.026047375 -0.024954086 0.0027741306
0.026595201 0.020935055 0.050211515 -0.017287765 -0.021966005 0.048259478 -0.03019727 -0.022691997
-0.013333294 0.02263765 -0.040439792 0.03488982 0.028860757 0.01025582 0.009562208 0.019086955
-0.0077202194 -0.010537698 -0.002573315 0.0203899 -0.006014486 0.051065665 0.01196726 -0.033080816
0.011935319 -0.013017943 -0.022660496 0.033459257 -0.060785033 0.029990321 0.037698478 -0.024177687
00000000: 27a2 04bd 83b2 793c 7b5b f73c babe f0bd
00000010: 402a 9b3d 58cf d53c cb21 cfbc 085d ea3c
00000020: c64b efbc cceb d03b 6172 6b3c c28c beba
00000030: f987 3dbd ce5a db3c 49de 203d 62fb 09bd
00000040: 34e0 013d c63d 133d ecc3 c83c 68d1 60bd
00000050: a070 19bd 64c3 d33c 7e2d e0bd 5740 653a
00000060: 60c0 01bc 000c acbc 46c0 f8bc ee7a b7bc
00000070: 48c0 bbbb b66c 963c 5647 fabc 50de 8fbc
00000080: 3a42 11bd 20b2 c9bb 5042 713b 6b02 14bd
00000090: 5efd 7938 52af 2bbd 41d2 04bd fa70 363d
000000a0: 04a6 46bc a01d 01bd e90a ac3c c754 e83a
000000b0: d6d1 a13c f41e 633c ddf5 10bc a5f5 03bb
000000c0: d2d5 0abd 1b61 d43c cf72 40bc c53e 793c
000000d0: 09b0 8b3c 6c66 b23c 5057 75bd ff70 b03a
000000e0: 29d4 eebc 37b5 5f3a 8ea4 4fb8 6c31 4dbc
000000f0: 16b3 0f3d 45b0 b93c 49fa 00bd fa67 4e3d
00000100: 1aad 10bd 960e ac3c 10c0 3b3d 3c1f bbbb
00000110: 13cb c33c fa97 4cbc 12d8 243d 5723 903b
00000120: 04ab cdbc 22bf b43b c9c2 e3bc 8db6 51bd
00000130: 2c09 d83b 2910 c03b 8301 313d a172 32bc
00000140: d875 a8bc 8ae3 aabc a8d6 293d 3db8 8ebc
00000150: 6b30 4fbc e8c8 353d 8dab b43c 1267 9bbc
00000160: 2738 f53c 6c17 04bd 3148 27bb 9494 77bd
00000170: e862 803a 2e2e 4b3d 7c1b 8dbd a06a 15bc
00000180: 428d adbb 0e8a 043d 03d1 1d3d ece6 2bbc
00000190: 4a80 423d f951 fd39 5178 bfbc 3152 1cbb
000001a0: ffe2 f6bc e087 d2bc 04ac ba3c 18f1 c8bc
000001b0: 5a1a 95bd 47a9 90bc 45a4 c7bc e71a 8b3c
000001c0: 9c10 19bd 30aa 8e3c e211 1b3d 7cb0 32bd
000001d0: a598 753c 6402 5abd e04d a8bc 093c 233d
000001e0: af0a 46bd 376c 83bc 403c 17bc 1ac5 973c
000001f0: 4aae 00ba 3ac6 1cbc 6e06 a2bc d41b 8abc
00000200: c551 b1bc e8e1 2d3d 57d9 6bbc 8bd3 4f3d
00000210: 5e89 e0bc 7031 bb3c 901a 2638 0327 06bc
00000220: 698b b63c 1aed 063d 042c 16bd 7aa0 ccbb
00000230: ed6e cdbc 5445 d93b 639a 6e3c 885f 49bd
00000240: afe5 423d e0f3 0b3d 7339 9abb 3f30 f33c
00000250: 5716 ba3c f242 fdbc 1649 583c 4350 65bc
00000260: 1963 a93c b388 7e3d a850 59bd 8978 5fbd
00000270: 412c 26bb 0d9c 47bd 209b 133c 2e69 683c
00000280: e0d8 d7bc 6502 223d 8dc8 d5bc 2b74 7e3c
00000290: 04e4 783c 64f7 dc3b 2c25 253d 9b88 bebb
000002a0: 91c2 2bbc 16b3 ac3c 9c50 353d a86c 0c3d
000002b0: 5420 c1bd 1b17 523c c967 0b3c 475b d0bc
000002c0: 90ae 393d 05f4 383c 0de5 17bd 01e8 a13c
000002d0: 56a7 3cbc 5876 a3bc 86d9 363b 6ea2 14bc
000002e0: 038b 0d3d 6a6c 19bd e20c 0fbd 31e0 1b3d
000002f0: 2d9a fc3c 6a38 8dbb 8a2c 1a3d 1405 d63c
00000300: b60a 69bd d359 093d 1f2b 75bb 0279 983c
00000310: 49e2 f4bc 0da4 c63c 4aaf f33c bbde 1ebd
00000320: 2019 e3bc 2a3c d63c dc01 593c bb4c 293d
00000330: d02e 903c 10c9 233b f558 193d acbc 23bc
00000340: a49d 4a3c b052 303c 3a21 e53c 58cb eb3b
00000350: 2b0e e5bc 68df a33b 7b11 073d 46c4 c33c
00000360: 3b81 873d 7107 3abd c131 de3b cee1 c53c
00000370: fd80 81bd 4e61 d5bc 836c ccbc 30ce 353b
00000380: 2ede d93c fe7f ab3c 97aa 4d3d 129f 8dbc
00000390: 0df2 b3bc bbab 453d 4460 f7bc 91e4 b9bc
000003a0: e373 5abc 9872 b93c 32a4 25bd a1e8 0e3d
000003b0: 656d ec3c 0708 283c cfaa 1c3c 3f5c 9c3c
000003c0: e5f9 fcbb 4fa6 2cbc 10a5 28bb b808 a73c
000003d0: 2a15 c5bb 3b2a 513d 5412 443c c07f 07bd
000003e0: 5b8c 433c 3649 55bc 81a2 b9bc 930c 093d
000003f0: baf9 78bd 43ae f53c b869 1a3d 4910 c6bc

linear_layers.0.bias f4 [64]
-0.028668838 -0.021007596 -0.00076387916 0.02546545 -0.015779387 0.007925678 -0.0032103052 0.04281248
-0.036121294 0.020359894 -0.0367839 0.042949464 0.014471155 0.024457464 -0.037531216 0.007104727
-0.030947575 -0.039535224 0.0061468813 -0.03635249 -0.023238085 0.0269799 0.035008673 0.014670523
-0.01181228 0.012384771 -0.008231826 0.027449993 -0.028912349 -0.014222474 0.02862432 0.036102843
-0.009295964 0.04055551 0.008519485 -0.0134478165 0.012582701 0.022264214 0.0068078553 0.027176684
0.018270548 0.0018786606 -0.034215737 0.0026643039 0.024674378 -0.014159576 0.019770315 0.003179201
-0.006490656 0.028020456 -0.03354495 -0.032111738 0.016800417 0.040467653 -0.031714186 -0.013766854
0.018428432 0.02321851 -0.03143952 0.01478097 -0.021419799 0.031734794 0.0417047 0.0047115535
00000000: e9da eabc 1f18 acbc 103f 48ba eb9c d03c
00000010: c643 81bc b4da 013c fc63 52bb 245c 2f3d
00000020: ecf3 13bd cbc9 a63c b7aa 16bd c7eb 2f3d
00000030: 6c18 6d3c 055b c83c 55ba 19bd c5ce e83b
00000040: c585 fdbc b0ef 21bd c76b c93b 59e6 14bd
00000050: cc5d bebc f404 dd3c 4165 0f3d a25c 703c
00000060: 4b88 41bc 7fe9 4a3c c8de 06bc cfde e03c
00000070: 97d9 ecbc 6105 69bc 8d7d ea3c 93e0 133d
00000080: 194e 18bc 891d 263d 4f95 0b3c 3b54 5cbc
00000090: ac27 4e3c 7163 b63c 6e14 df3b a3a1 de3c
000000a0: 1eac 953c 643d f63a cd25 0cbd 9a9b 2e3b
000000b0: ec21 ca3c 91fd 67bc 5bf5 a13c 245a 503b
000000c0: 92af d4bb 288b e53c 6e66 09bd 9987 03bd
000000d0: 07a1 893c 69c1 253d bce6 01bd 5f8e 61bc
000000e0: 39f7 963c bf34 be3c bac6 00bd e22b 723c
000000f0: 9378 afbc 58fc 013d 8cd2 2a3d 6063 9a3b

linear_layers.2.weight f4 [32, 64]
-0.09434905 -0.11878009 0.06846695 0.10075717 0.078979455 -0.024380812 -0.088672735 -0.103002645
-0.004161849 -0.13786674 0.0008965648 0.053793028 0.04250596 -0.10502385 -0.018461168 -0.05661398
-0.04958634 0.03220326 -0.009972855 0.08948915 -0.12015429 -0.06387062 0.12804432 -0.12209624
0.04871527 -0.04035899 -0.0347743 0.0035440372 -0.031226926 -0.003571783 -0.07602574 -0.0052172104
0.1327206 0.028405603 -0.0074999216 0.113044575 0.039580747 -0.039428156 -0.063108966 -0.09448297
0.0005723825 -0.025693491 -0.094715804 0.0647794 -0.07579077 -0.00041311144 0.0872783 0.095803335
0.114609115 -0.0505573 -0.010546591 -0.008317148 0.01969739 -0.05951381 -0.042957425 0.09188673
0.020753726 0.022595674 0.03307358 0.04412645 -0.0848483 0.091392055 0.10410837 -0.10100605
0.04205677 -0.100913435 0.06375247 -0.04611326 -0.11588968 -0.11335267 -0.022683892 0.031168958
-0.1133798 -0.0968585 -0.11782573 0.08300404 0.09838335 0.021885425 0.102642596 0.018720075
-0.07333501 0.043305308 0.019564148 0.066369295 0.034078613 0.120688215 -0.043752734 0.009766081
-0.069067895 0.08345365 -0.06977354 0.06647615 0.05441253 -0.10892592 -0.0019695214 -0.0022034014
0.019073136 -0.034340262 0.107508115 0.01645425 -0.0042153667 0.009203043 -0.04985676 -0.09660543
-0.047874022 0.03511606 -0.094681546 -0.07987564 0.014541364 0.09122872 -0.016310543 0.0750674
0.051476076 -0.08809487 0.09214091 -0.06844477 -0.124857485 0.118607104 0.04304713 -0.10546972
0.10127174 -0.1019852 -0.06625879 -0.025848756 0.07657379 0.04430853 -0.08960527 0.025136977
0.07984143 0.09667078 0.10258901 -0.002447299 0.09480916 -0.09504052 -0.09629599 0.11811675
0.10828488 0.13471673 -0.05263383 0.006281016 0.0670662 -0.022590999 -0.08236204 -0.002875369
0.07974941 0.060623586 -0.04793874 -0.030608714 0.063686445 -0.019357419 0.01516736 -0.014967563
0.074981116 -0.017967083 0.03770256 0.06909441 0.0983121 0.041491162 0.09111095 0.01189628
-0.00038258903 0.062124178 0.08079414 -0.029149441 0.018983496 -0.059932552 -0.02192098 -0.15347134
-0.0031748912 0.04856372 -0.06951822 0.11307044 0.13089746 -0.037488725 0.045896716 -0.05851214
0.14509556 0.107454985 0.015128332 0.14697765 0.02794275 0.03464698 -0.049089044 0.035718046
0.056895934 0.027454782 -0.09184681 0.071186 -0.08225797 -0.11337953 -0.016933383 0.03480601
0.05220562 -0.07755808 0.10104738 0.15756923 -0.009268938 0.112806626 -0.02744505 -0.06552253
0.04779287 -0.051428676 0.07520998 0.0646865 -0.038752597 0.02410241 -0.093557626 0.12574987
0.036787573 0.019772386 0.085695386 -0.022268312 -0.010120352 0.045967404 0.040130407 0.08745542
-0.11179159 0.004888281 -0.0792553 0.13817629 -0.084919386 0.0281775 -0.055000253 -0.057863563
0.0922403 0.14348125 -0.073475815 0.0452913 -0.042135715 0.112540625 -0.049929023 -0.07354404
-0.053030286 -0.11565508 -0.0484142 0.016592547 -0.083785035 0.09044742 0.06914146 -0.038646586
0.085789494 -0.10510315 -0.0138606625 0.09061245 0.027689856 0.080704555 0.12946764 0.038464356
0.0703564 0.018723527 0.07792691 0.0006197157 0.009314045 0.09287514 0.0929284 0.106685266
00000000: 133a c1bd fa42 f3bd 6638 8c3d c659 ce3d
00000010: fbbf a13d 45ba c7bc 0d9a b5bd 0df3 d2bd
00000020: 1f60 88bb f02c 0dbe 7207 6b3a 1456 5c3d
00000030: bb1a 2e3d bf16 d7bd e03b 97bc 10e4 67bd
00000040: 0c1b 4bbd 91e7 033d 3065 23bc 1646 b73d
00000050: 7413 f6bd 9ace 82bd 0d1e 033e 980d fabd
00000060: aa89 473d 784f 25bd 7f6f 0ebd 1443 683b
00000070: 9ccf ffbc 9314 6abb 62b3 9bbd 22f5 aabb
00000080: e9e7 073e deb2 e83c e7c1 f5bb ea83 e73d
00000090: 6c1f 223d 6b7f 21bd 463f 81bd 4a80 c1bd
000000a0: f00b 163a 287b d2bc 5cfa c1bd 10ab 843d
000000b0: 3138 9bbd e196 d8b9 f7be b23d 8a34 c43d
000000c0: 2fb8 ea3d 2c15 4fbd 9ccb 2cbc a644 08bc
000000d0: 6c5c a13c c1c4 73bd 20f4 2fbd 1c2f bc3d
000000e0: b803 aa3c 901a b93c 2a78 073d f0bd 343d
000000f0: f2c4 adbd c22b bb3d c536 d53d 43dc cebd
00000100: b843 2c3d b4ab cebd a890 823d 42e1 3cbd
00000110: 9257 edbd 7225 e8bd 92d3 b9bc 0b56 ff3c
00000120: ab33 e8bd c05d c6bd 9e4e f1bd 06fe a93d
00000130: 367d c93d 1049 b33c 4836 d23d d85a 993c
00000140: aa30 96bd e860 313d fe44 a03c a0ec 873d
00000150: 0496 0b3d 622b f73d 1136 33bd ea01 203c
00000160: 7873 8dbd bfe9 aa3d 6ee5 8ebd a624 883d
00000170: acdf 5e3d 8e14 dfbd 1613 01bb f166 10bb
00000180: 443f 9c3c 60a8 0cbd 372d dc3d 10cb 863c
00000190: 0f21 8abb 5cc8 163c 9a36 4cbd 11d9 c5bd
000001a0: 8d17 44bd dcd5 0f3d 66e8 c1bd d795 a3bd
000001b0: e73e 6e3c 20d6 ba3d b09d 85bc f0bc 993d
000001c0: 94d8 523d 156b b4bd 60b4 bc3d c62c 8cbd
000001d0: 48b5 ffbd 48e8 f23d 3052 303d 8200 d8bd
000001e0: 8f67 cf3d 9edd d0bd b0b2 87bd c5c0 d3bc
000001f0: b8d2 9c3d dc7c 353d f882 b7bd 10ec cd3c
00000200: e783 a33d 54fb c53d 301a d23d dd62 20bb
00000210: 4e2b c23d 9ba4 c2bd d536 c5bd 32e7 f13d
00000220: 77c4 dd3d 2ff3 093e 9296 57bd fbd0 cd3b
00000230: 015a 893d c210 b9bc 6ead a8bd b070 3cbb
00000240: a953 a33d 7050 783d 6a5b 44bd 20bf fabc
00000250: 0a6e 823d 7393 9ebc 8580 783c 823a 75bc
00000260: b38f 993d b42f 93bc 006e 1a3d 5f81 8d3d
00000270: db57 c93d a3f2 293d 6198 ba3d 9de8 423c
00000280: 3b96 c8b9 ec75 7e3d 6677 a53d cfca eebc
00000290: 4783 9b3c d67b 75bd a193 b3bc 9727 1dbe
000002a0: d611 50bb c0ea 463d 925f 8ebd 7a91 e73d
000002b0: fc09 063e c78d 19bd 32fe 3b3d 6daa 6fbd
000002c0: ee93 143e 5c11 dc3d d3dc 773c 4f81 163e
000002d0: 32e8 e43c fee9 0d3d 9811 49bd 164d 123d
000002e0: b60b 693d dae8 e03c 2e1a bcbd f7c9 913d
000002f0: de76 a8bd 8733 e8bd e1b7 8abc bf90 0e3d
00000300: 8fd5 553d c5d6 9ebd eef1 ce3d d459 213e
00000310: bedc 17bc 2907 e73d 71d4 e0bc ad30 86bd
00000320: 75c2 433d e0a6 52bd b107 9a3d 5b7a 843d
00000330: 0bbb 1ebd 6b72 c53c 249b bfbd 93c4 003e
00000340: 91ae 163d b3f9 a13c 1081 af3d 096c b6bc
00000350: d5cf 25bc 5148 3c3d c85f 243d d41b b33d
00000360: fdf2 e4bd e02d a03b 9a50 a2bd 167e 0d3e
00000370: 37ea adbd 80d4 e63c f247 61bd 5802 6dbd
00000380: 7be8 bc3d c0ec 123e 7d7a 96bd 5f83 393d
00000390: 8096 2cbd b37b e63d 6082 4cbd 429e 96bd
000003a0: 4936 59bd 92dc ecbd f84d 46bd 18ed 873c
000003b0: 7d97 abbd 7f3c b93d 0a9a 8d3d e24b 1ebd
000003c0: 67b2 af3d 5240 d7bd d517 63bc 0593 b93d
000003d0: d6d5 e23c 6e48 a53d 2a93 043e cd8c 1d3d
000003e0: 0417 903d 1562 993c 2598 9f3d 6b74 223a
000003f0: f099 183c 5235 be3d 3f51 be3d ce7d da3d

linear_layers.2.bias f4 [32]
-0.11436509 0.0074291285 -0.016290639 -0.05548001 0.0068518533 -0.058845147 -0.0073078573 0.020718792
-0.10911463 0.054839775 -0.06753905 0.11010484 -0.088384606 -0.083392315 0.053000774 -0.11758625
0.10739216 -0.01746359 0.118632354 0.11651583 -0.039808247 -0.10074744 0.02100023 0.04705384
0.066466615 -0.081344426 0.0067303875 -0.1135021 -0.022423659 0.09786269 -0.09834215 -0.11867449
00000000: 3f38 eabd 0c70 f33b f273 85bc 023f 63bd
00000010: 8385 e03b 9c07 71bd c076 efbb 75ba a93c
00000020: 7e77 dfbd ac9f 603d ea51 8abd a57e e13d
00000030: fd02 b5bd 97c9 aabd 5717 593d 0fd1 f0bd
00000040: 6cf0 db3d cd0f 8fbc 85f5 f23d da9f ee3d
00000050: f90d 23bd ac54 cebd ad08 ac3c 87bb 403d
00000060: a61f 883d e897 a6bd 958a dc3b ca73 e8bd
00000070: d2b1 b7bc 3c6c c83d 9c67 c9bd 9c0b f3bd
