learning_models/trained_weights/cnn_10.onnx (onnx, 498921 bytes, 16 tensors)

conv_layers.conv_0.weight f4 [16, 8, 3, 3]
00000000: 4eb5 ffbb 697c be3d bbba e1bd 73bd ab3c
00000010: cbc4 83bc cd37 c83d 8142 e23d 421e d2bc
00000020: e229 97bd a3cb 2abd 0439 bbbd baa3 cfbd
00000030: 285b 403d ba7a a53d 6401 c33d dd0a c23d
00000040: 5950 d13d dc21 a6bd 4952 a8bd f770 1dbd
00000050: f9c7 99bd 56f7 da3d 18ec 3abc a751 643c
00000060: 3aaa 033e f5ce 443c 10ad 0bbe 9f1d 8a3c
00000070: f89d 493e 9633 493e 6586 c7bd 9510 8e3e
00000080: 3132 373d 1f53 05bd 1fcb a13d b9b6 3e3d
00000090: c276 c33d 9172 debd 0761 103d 81a7 9d3d
000000a0: 7b43 9d3d 827d b53d 63e0 40bd 44e4 7d3d
000000b0: 38cf 54bd 5a74 58bd 7f29 86bd 7850 04bd
000000c0: 63da aabd 8ae1 aabd 988e 9fbd 5319 87bd
000000d0: 5c56 0c3d b816 b2bd 086c b63d 6134 073e
000000e0: 5ccb c73c f9f3 86bd adf8 f03c a8ce 613c
000000f0: c830 97bd 9250 3fbd 5a29 b1bd f169 893d
00000100: 922f 1abd ca8a 03bd bb46 e5bd 3544 9cbc
00000110: 3516 ddbc 8105 2dbd 60fd 553d bdfd 95bd
00000120: 9ce9 90bc e03e 783c 872f a2bd 0fea a7bd
00000130: c91f 223e 818f 023e 5050 cd3d 4d91 d33c
00000140: a65c 3fbd a9e1 6dbd a527 e5bd 9b92 8a3d
00000150: 8380 2b3b 7ab3 bbbd cbb3 89bd d40e 13bd
00000160: a15b fbbd 155f d83d 2ded eb3d 68a3 583d
00000170: bb2b b1bd 97d1 ff3c cb52 0d3e adc8 98bd
00000180: 9b38 e43c 68f6 01be 47eb 273d 8488 633d
00000190: fe00 4c3c 53c9 31bd 3db7 c43d 5aae cabc
000001a0: 9b0a ccbd 1620 babd 94db 243d 8f9a db3d
000001b0: 39aa dabc 38a2 b8bd 4e3f 4a3d 08d6 4dbd
000001c0: da56 75bd e4b2 77bc 3911 22bd 9919 843d
000001d0: 2e05 d83d e4b8 0d3d d795 9dbd 14b6 173d
000001e0: 1f11 873d 0ecd 4c3d 0465 48bd 2e05 10bd
000001f0: 33d7 ee3c 6904 193d 3bc1 ccbd a065 aebd
00000200: 5020 ca3d 3537 95bb d01f 213c db25 2f3d
00000210: 6cb5 a13d d97f fdba ca37 ee3d 3136 6bb9
00000220: 730d 523d 9a5d 843d 6ce3 94bd c79f a13c
00000230: aab0 4fbd d40d 93bc 8512 bfbb 74bb 853c
00000240: 0b60 073d 8bb5 3c3c ff03 4bbd 259e ba3d
00000250: f348 72bd 5265 9a3d a19c 9f3d 4dbb e0bd
00000260: bda3 ef3d b504 0cbd 006f cfbd e9bf ed3d
00000270: e8e0 0d3d 3ae7 883c 8991 4d3d b26a 58bd
00000280: c7f8 923d 5088 1ebc c7cb 303c 5028 f53c
00000290: 1bc8 0d3d 9167 043b 9f77 bfbd 4257 37bc
000002a0: f323 d23d fde2 823d 8bd5 943d f034 babb
000002b0: 879c f93d 7186 343d 3775 eebd ce23 e13d
000002c0: df1d 31be 0590 4c3d 8657 243e 05af 38bd
000002d0: 420d 8c3c 6dbf c43d 0526 43bd f859 0e3e
000002e0: 4295 0ebc ba53 303d cdd2 f43d 187c 983b
000002f0: 73f2 7c3d 0ec2 b5bd e3e6 893d aa2f 9c3d
00000300: 5724 02be f6c4 483d 12dd d1bd fd95 e43a
00000310: bb5b bdbc eeb7 60bb 3a64 df3d 3695 3dbd
00000320: 124b 943d f96f 9cbd f48e dc3d 2108 fe3d
00000330: 7308 263d 352e c43d 3ea0 733d dc9e a4bd
00000340: ae9b e13d 03d2 d9bc 048f 1d3d ba45 56bb
00000350: 8c70 fabb 8d91 9bbd 3f4e c83d 6c35 b53b
00000360: cbed 09bb f336 a53d 46ac 4ebd fb1c 053d
00000370: 5449 f4bd a6fc 8ebd 114c 6d3c 1494 20bd
00000380: 3811 dfbd b374 85bc d4f9 e33d 753c 9f3d
00000390: d2c7 0abd 6910 70bd 066f 32bd 6098 57bd
000003a0: 0ec5 fe3c 00f4 0fbd 4ee1 27bd 8a63 803d
000003b0: 2857 99bd ba6d 0bbd 0cd4 10be 6110 a4bd
000003c0: 6f3c 55bd c4e8 d2bd 10f0 e3bd dea6 37b7
000003d0: 49d8 46bd f490 75bd a2f9 e8bc 9656 db3d
000003e0: 744b 593e 903d c33d d194 6c3e 8513 003e
000003f0: 5e3f 83bb 96e0 da3d 03b5 82bd f44a 9a3d
-0.0078035956 0.09301073 -0.11021944 0.02096436 -0.01608505 0.09776268 0.11047841 -0.025649194
-0.073810354 -0.04169811 -0.09141734 -0.1013865 0.046961933 0.08080049 0.095217496 0.09474728
0.10220403 -0.08111927 -0.0821882 -0.03843781 -0.07508845 0.10691707 -0.011408828 0.013935483
0.12857905 0.012012233 -0.13640237 0.016859828 0.19689167 0.19648585 -0.097424306 0.27747026
0.0447256 -0.032549974 0.079000704 0.046560977 0.09544136 -0.108616956 0.035248782 0.076979645
0.076788865 0.08861829 -0.04708899 0.06198527 -0.05195543 -0.052845336 -0.065508835 -0.032303303
-0.08342435 -0.083437994 -0.077908695 -0.06596627 0.034262046 -0.086957395 0.08907324 0.13203575
0.024388961 -0.06589503 0.029415453 0.013782181 -0.07382351 -0.046707697 -0.08650465 0.0670966
-0.037643023 -0.03211478 -0.111951314 -0.019075492 -0.026988128 -0.042241577 0.05224359 -0.07323787
-0.017689519 0.015151709 -0.07919221 -0.0819894 0.15832438 0.12750055 0.10025084 0.02582612
-0.046719216 -0.058076534 -0.11189202 0.06766244 0.0026169128 -0.09165092 -0.06723746 -0.035902813
-0.12273336 0.105650105 0.11519847 0.05289021 -0.08650919 0.03122787 0.13801114 -0.07460151
0.027859023 -0.12691653 0.040995862 0.055550113 0.012451408 -0.04340489 0.096052624 -0.02474134
-0.0996296 -0.09088151 0.04024847 0.10722839 -0.026692497 -0.09015316 0.04937678 -0.050252944
-0.05989728 -0.015118334 -0.039567206 0.06450195 0.10547863 0.034600154 -0.07694595 0.037038878
0.065950625 0.050000243 -0.04892446 -0.03516119 0.02915535 0.03735772 -0.09997793 -0.08515477
0.09869444 -0.0045537003 0.009834245 0.04276071 0.078959316 -0.001934047 0.11631735 -0.00022431534
0.051282357 0.064631656 -0.0726994 0.019729508 -0.05070559 -0.01795093 -0.005831065 0.016324736
0.033050578 0.011517893 -0.049564358 0.09112195 -0.0591516 0.075388566 0.077935465 -0.10973225
0.117011525 -0.034184176 -0.101285934 0.116088696 0.034638315 0.01671182 0.05018762 -0.052836128
0.07176357 -0.009676054 0.010790772 0.029926449 0.034614664 0.0020203332 -0.09348988 -0.0111902375
0.10260763 0.06390951 0.072672926 -0.00568258 0.12188058 0.044073526 -0.11643451 0.10993157
-0.17296551 0.049942035 0.16049013 -0.045088787 0.017096166 0.09606824 -0.04764368 0.13901508
-0.008702578 0.043048598 0.119542696 0.004653465 0.061754655 -0.088749036 0.06733491 0.07626279
-0.12709175 0.04901596 -0.10247244 0.001743972 -0.02311503 -0.0034289318 0.109077886 -0.046284877
0.07240881 -0.076385446 0.10769454 0.12403894 0.0405354 0.09579126 0.05947899 -0.080381125
0.11016022 -0.0265894 0.03846647 -0.003269537 -0.007642811 -0.07596121 0.09780549 0.00553005
-0.0021046277 0.08067121 -0.05045726 0.03249834 -0.11928049 -0.069817826 0.014483468 -0.03920372
-0.10891956 -0.016290998 0.11131635 0.07775203 -0.03388197 -0.0586094 -0.04356291 -0.05263555
0.031099822 -0.035144806 -0.04098635 0.062689856 -0.07487327 -0.03404019 -0.1414339 -0.080109365
-0.052059587 -0.10298303 -0.11129773 -1.0946502e-05 -0.04854611 -0.05995269 -0.028439347 0.10709874
0.2122019 0.095332265 0.23103644 0.12507446 -0.0040053567 0.106873676 -0.063821815 0.075338274

conv_layers.conv_0.bias f4 [16]
00000000: 0230 bd3d 3171 b73d da26 e2bc 9378 a0bd
00000010: 9790 adbb 38bf c93d 63f6 e73c f531 a3bd
00000020: 517a e23c 6390 ea3c ba40 4a3c b6f8 813d
00000030: e460 2fbd 64b5 8e3c 1a89 0d3e 8b9e 883d
0.092376724 0.089571364 -0.027606416 -0.07835498 -0.0052967775 0.09850925 0.028315729 -0.07968513
0.027646216 0.028633302 0.012344534 0.06346266 -0.04281701 0.017420478 0.13821831 0.06670865

conv_layers.conv_1.weight f4 [32, 16, 3, 3]
00000000: 53b6 0d3b e589 b5bd be8a 06bc d224 8b3d
00000010: 08c4 1fba b634 933d 2efc 72bd 635b 40bd
00000020: 564c 913d f54a 793d f467 c13c c060 783d
00000030: 389f d83d 48ca a03b 3792 e63c fea0 143d
00000040: 2574 a03d 3266 8bbd d052 e63d b3bd a43d
00000050: 007f 963d 5fed be3d 852b f2bd 1162 aa3d
00000060: 52f6 d7bb 6770 d7bc 2a9d 01bc 5f82 67bc
00000070: 520c a7bd 42bc 793c dac6 fdbd 274a f2bd
00000080: df9c bb3d cac2 5b3d 9ecc a13d 528e 41bd
00000090: e402 ff3c 7e05 0a3e dcb3 e8bc f627 8c3d
000000a0: c2aa f03c 846a 43bd ed59 823d 7ccd 68bd
000000b0: 3a58 69bd f196 fabd 79b5 0b3e dc3a bf3c
000000c0: 4535 203c 324f f13d 268b e4bc c0fd b4bb
000000d0: a0a7 c03d d0dd debc 0798 e13d f24d c6bc
000000e0: 54a4 13bb 0753 b13d 5749 02bd ef1a 17bc
000000f0: 98cf 8abd e70d 71bd 72bf f53c 07f6 2ebd
00000100: a5b0 103d 3d1d f83d bb7d a83d 2550 bebc
00000110: 3fa9 433d 206f 5c3a 165c 8c3d 79ae a1bd
00000120: 9ae9 893d cb93 cfbb 442f 0cbd 7674 7ebc
00000130: 4179 023c 66c7 46bc 19f2 27bd d918 913c
00000140: c18f b13d 1e11 e8bc 10f9 383d 4f92 6ebd
00000150: df98 edbb 3663 fe3b 20aa 8cbc 8ea1 2a3d
00000160: 37f3 ab3c 48c7 9cba a89e 543d 58cb c53c
00000170: 15ae 3fbd c1b6 a5bd f9cc 953b af87 bc3d
00000180: 2025 e63c 708e 963c 136b 7cbd 0159 7fbd
00000190: 7ba2 43bd ab20 aa3d ca91 1fbd 56d4 a33d
000001a0: 37b7 8d3d 95f7 843d d22f 513d 2eb1 5f3d
000001b0: e407 a93d 807c 24bd c06c d33b 1a90 adbd
000001c0: 48e9 05bd c829 703d 2c6b 91bb adb5 12bd
000001d0: 4e25 e03b e758 2e3d 6bbc 853d c3ab 5fbb
000001e0: 2c9a 813d db84 363d 0caf 3d3d eaee 573d
000001f0: 99c8 863d 4dab ce3d 1881 673d 4ce3 07bd
00000200: d567 4b3d b30e 433d a3f9 7cbd 05a5 353d
00000210: 9532 bf38 39fa 9cbd 1705 4a3d 434a 65bd
00000220: 3b17 353c b72e 293d 4002 26bc 75d8 7cbd
00000230: 9e1a 07bd d6a8 0e3c 96c7 6a3d 2031 c13c
00000240: 41fc edbc 62cb 7e3d faa0 8e3d 6a15 e8bc
00000250: c145 e6b9 be62 c0bb d110 7cbc ea8c c53d
00000260: ebe7 b3bd 6eef d13c b4fb 433c ae6d 3bbd
00000270: 5023 c9bc fbdc f8bc 890a 203d a28c 93bd
00000280: 3ab0 40bd 17bf f9bb 718a 2b3d 1044 55bd
00000290: 37a7 a73a f627 843d 96ac dcbc 9f56 24bd
000002a0: 61d2 a03b fe7f 1cba 09dc c9bd 4415 4c3d
000002b0: 534d edbd af4c 813d a81e f93d 948f f43d
000002c0: 0cc2 15bd d8da bf3d 1075 4a3d 0c5d 4fbc
000002d0: 544a b33c 0e34 93bc 665f 533b 8547 4fbb
000002e0: 79c2 c3bd 6b88 e83d 8af1 6fbd 8950 af3c
000002f0: 0909 49bd 2fbe 77bd 52d4 96bd 4aa8 3b3d
00000300: d8c9 7a3d 33b4 f7bd 56a7 643d 4a61 b1bd
00000310: 2583 b8bc a6bf e03c bb41 b33d 60cc 92bc
00000320: f7ec 83bd 5b47 e93c 223d 8b3d f30c 893c
00000330: a3cc 99bd 8ffa 253d 8ee0 f73d 1dec c13c
00000340: 405c 1cbd 35c7 0bbd aad0 d9bc b2a5 98bd
00000350: 0fab b0bd eb26 aebc 01f0 aebc 2571 c13c
00000360: de2f 3abd d00f 803d 254c 783c bbe4 84bd
00000370: f234 033c 98dd e3bc d0b8 b73d 92fc 113c
00000380: c8a2 9abd 6eaf c7bc c56d b9bd 499a 553d
00000390: c0fb 65bd 598b 893d 786e d6bd ff40 b93d
000003a0: f5f7 413d 0efd 103c c212 003d c18b 18bb
000003b0: 1ed7 9bbd 9eb5 a43d 24df 323c 52b6 c53d
000003c0: ebe6 1abd 829b 4fbd ca60 8b3d 9fd6 7e3d
000003d0: 1853 71bd 2c7e 9fbc 4c44 173e 3bb7 3b3c
000003e0: 7a58 9fbd 059b ed3c c5bb 2bbd 3a76 e63b
000003f0: 0f34 63bd 42d9 89bd 6a2d 983a f888 c23d
0.0021623566 -0.08864192 -0.00821179 0.06794132 -0.00060945796 0.07187788 -0.05932253 -0.046962153
0.07094638 0.0608625 0.023609139 0.060639143 0.105772436 0.0049069263 0.028145893 0.036286347
0.07834653 -0.068066016 0.11246264 0.08043995 0.07348442 0.09322619 -0.11824707 0.08319486
-0.006590643 -0.026298715 -0.007911006 -0.014130204 -0.08156647 0.015242638 -0.123914436 -0.1183055
0.0916078 0.053652562 0.07900356 -0.047254868 0.031129308 0.13478658 -0.028406076 0.068435594
0.029378299 -0.047709003 0.06364808 -0.05683659 -0.056968905 -0.12235821 0.13643445 0.023343496
0.009778325 0.117826834 -0.027898382 -0.0055234134 0.09406972 -0.027205378 0.11015325 -0.02420709
-0.0022528367 0.08658414 -0.031808224 -0.00922273 -0.067778766 -0.05885115 0.029998515 -0.0427151
0.03532471 0.12114952 0.08227106 -0.023231575 0.047768828 0.0008408893 0.068535015 -0.07894606
0.06734009 -0.006334757 -0.034224764 -0.015530696 0.0079634795 -0.012132501 -0.041002367 0.017712044
0.08669997 -0.028328475 0.0451594 -0.058245 -0.0072508897 0.0077632917 -0.017170966 0.041657977
0.020989997 -0.0011961246 0.05190912 0.024144813 -0.046796877 -0.08091498 0.004571554 0.09205567
0.028093874 0.018378466 -0.06162555 -0.06234074 -0.047762375 0.08307012 -0.038957395 0.07999484
0.06919711 0.06492535 0.051070996 0.05461233 0.08253458 -0.040157795 0.006452173 -0.08474751
-0.032693177 0.058633596 -0.0044378247 -0.03581779 0.0068403846 0.042565253 0.065300785 -0.0034129478
0.06328234 0.044560295 0.046309516 0.05271808 0.0658123 0.10091267 0.056519598 -0.03317575
0.04965957 0.04762144 -0.06176151 0.044346828 9.117011e-05 -0.07664914 0.04932126 -0.055979025
0.011052902 0.041304316 -0.010132372 -0.061729867 -0.03298437 0.008707246 0.057319246 0.023582995
-0.029050948 0.06220568 0.069642976 -0.028330524 -0.0004392099 -0.005871146 -0.015384869 0.09646018
-0.08784469 0.025626864 0.011961866 -0.045758896 -0.024552971 -0.03037881 0.039072547 -0.07204558
-0.047043063 -0.0076216566 0.041880075 -0.052066863 0.0012790923 0.064529344 -0.026937764 -0.04012167
0.0049078916 -0.000597 -0.098564215 0.049824968 -0.11587014 0.06313454 0.1216405 0.11941448
-0.03656201 0.09367913 0.049428046 -0.012656461 0.021886028 -0.017969158 0.0032252907 -0.0031628322
-0.09558577 0.11354145 -0.05857996 0.021400707 -0.049080882 -0.060484108 -0.07364716 0.04581479
0.06122765 -0.12094917 0.055823646 -0.086611345 -0.022523472 0.027435135 0.087527715 -0.01791972
-0.06441682 0.028476408 0.067987695 0.016729807 -0.075097345 0.040522154 0.12103377 0.023672158
-0.038173914 -0.034125526 -0.026588757 -0.07453479 -0.08626377 -0.021258792 -0.021354677 0.023613522
-0.045455806 0.06253016 0.015154873 -0.064889394 0.008008229 -0.027815625 0.08970797 0.008910315
-0.07550579 -0.024375644 -0.0905414 0.05214909 -0.05614829 0.067160316 -0.10470289 0.090456
0.04735561 0.008849395 0.03126789 -0.002327666 -0.0760939 0.08042453 0.010917459 0.096539155
-0.037817877 -0.050685413 0.068055704 0.062216397 -0.058917135 -0.019469343 0.14772147 0.01145726
-0.077805474 0.029004583 -0.041927118 0.0070331367 -0.05546957 -0.06730892 0.0011610214 0.09498781

conv_layers.conv_1.bias f4 [32]
00000000: 4831 9d3d 0c1f 01bd 485c 1f3c 7e66 283d
00000010: b2d2 d7bc 9839 ed3c b682 1fbd 492b a03d
00000020: 1508 ab3d 33aa cb3d 532a 053d 7671 08bd
00000030: c40f b13d f910 bd3d a454 ebba dbf5 003d
00000040: 5e74 6c3d 2db0 21bd 9c0f a23c 0d46 37bd
00000050: 8175 a33d 01f6 de3c ff83 72bd 0e69 bd3b
00000060: 3483 4d3d b24c d03d 0579 98bc 2a73 7d3b
00000070: 0ce2 14bd 13f8 203d 1e8a 9d3d e64f 853d
0.07675415 -0.03152375 0.009726591 0.04111337 -0.026345585 0.028958127 -0.038943015 0.07820756
0.08351151 0.09944572 0.032511067 -0.03331133 0.08645585 0.09231753 -0.0017954302 0.031484466
0.057728164 -0.039474655 0.019782834 -0.04474454 0.079813965 0.027216913 -0.059207913 0.0057803458
0.050173953 0.101708785 -0.018612394 0.003867338 -0.036348388 0.039299082 0.076923594 0.0650938

conv_layers.conv_2.weight f4 [64, 32, 3, 3]
00000000: c070 6e3d c18f 0ebd 9103 603d 07aa 84bd
00000010: d040 eabc 17e4 153d 6a5e fa3c 69ca 793d
00000020: ec68 2c3c c890 323d 8763 1c3e 96aa 44bd
00000030: a298 eabc a69f 1c3d b0a5 e3bc 7fbb c1bd
00000040: be32 89bd f2e6 873d 2994 e7bb c92b b6bd
00000050: 41f4 a8bc ab65 983c 6f84 53bd 58a5 0d3d
00000060: 7511 6ebc 5ccc ba3c 6ab1 a8bc b256 823d
00000070: d1a9 993d aa71 193d 389f 983d 9444 f93c
00000080: 8b89 843d 0c7e a53d 3900 433d 1e90 e63a
00000090: f6c9 713d 4e94 a53c 4eb1 5c3c 35a9 053d
000000a0: 8ca7 0a3d 1d83 523d bc18 ab3c 758a 163d
000000b0: f688 763c 256c a13d 8943 01bd 8384 66bc
000000c0: e052 bd3d 0a0c 643c f758 1a3d 14b3 573d
000000d0: a846 943d a854 9f3c bf18 7d3d 6af6 153d
000000e0: 4726 82bd 223c 33bd da79 01bc 22f0 8cbd
000000f0: 4b22 ccbd d9cb 533c 6fef 183d 68e0 1f3d
00000100: 80e1 7b3d 0309 34bd c496 f23c b24b 843d
00000110: e623 cbbc fb22 793d cf72 673d fb0c ddbc
00000120: d9f6 8f3d bc75 57ba 3996 e53c c56a 7c3c
00000130: 2109 843c 5605 9a3c 8fc0 c63b 03da fb3c
00000140: 8e63 55bd c809 b13d 6be9 dbbc 8295 49bd
00000150: e385 f0bb e29b 24bc 7afb 1e3d c99a 87bb
00000160: 2af7 6cbb da27 d53b 8c2a a1bb 7b16 e4bb
00000170: 9ee9 453d c6be 573c 19be 03bd 3408 e13c
00000180: 65a3 213d 4347 d5bc 75b6 893d b2c8 94bc
00000190: 544d 353d 1515 60bc 5618 c73c 843a 9e3d
000001a0: 452e ccbc 550c a03d 0bfe 513d 075b 34bd
000001b0: 09f7 9cbb 7776 67bd b372 36bc b59a 3cbd
000001c0: 9e98 183d b69a 20bd 7f9c 19bb 57b2 3c3d
000001d0: 1ca5 2dbd 85fc 0b3d 353c 123d 18ab 86bc
000001e0: ee28 103d 8354 83bd a82b 3e3d 5a50 50bd
000001f0: 1d2d d63a 518d 59bc 5d3a e4bc 1ab9 3b3d
00000200: d2ad 6cbd f0bb 793d d0b4 ba3d a6b7 51bd
00000210: 8760 fc3c ddae 1fbd 5f63 f83c 9433 0f3d
00000220: eb81 e2bd a447 663c 00c6 7d3b 04c8 ee38
00000230: 2c77 ebbc 45ab 7a3d 681b fd3b 58eb 53bd
00000240: 1835 2d3c 7dad 983c 96b2 213d 59ed 963d
00000250: 1b99 573d c876 753c 30cf 8a3d c6e7 803d
00000260: f906 c4b8 7302 d63c e5ce 0fbd d7d2 043d
00000270: 81d1 46bd 5302 b03c 78bd c6ba 2f21 2b3d
00000280: bc48 98bc 3781 16bd 1bc5 2bbd 77ee 49bd
00000290: 919c 063d acd5 32bc d374 1b3d 372b 6f3c
000002a0: 00da a83d 1622 63bd edcb b53c 1150 383d
000002b0: 24ae 463d 267b 73bd c583 863c 911b 603d
000002c0: f251 00bd 75bc 4abd 3357 4dbc cd3d 6b3d
000002d0: 08bb 7c3d 75c3 523d 4550 45bd 28c4 353d
000002e0: a3d4 753d 4990 a6bd ce2b e73c 2de0 21bc
000002f0: 207f ffbc 20fe a03c 0a3c 273d 895c 3f3c
00000300: 7d63 e73c 2c87 aebc 0268 923d 3316 1f3c
00000310: cc5f 7e3c b882 d23c 129e 2a3d c329 a43d
00000320: 52d5 8a3d 3416 c63b bbc5 133e a1c8 de3c
00000330: 3e4c 5d3d 78a7 9b3d 3ca8 c33c 40fb a3bd
00000340: 3846 93bc 5b2f 883b 1cc6 a8bd d755 a03d
00000350: 8473 02bd 0f77 f73c 86e4 853d 1e67 58bc
00000360: 2c2a f9ba be9a 8bbc c77a 79bd 3f28 8f3d
00000370: 9b5b 453d 5964 68bd f2ca a03d f215 4abb
00000380: 04bb 3dbd ddf4 12bd 94a9 5ebd 83e0 e43b
00000390: 8747 d6bc 72a8 f4bb 557e 903c 5030 153d
000003a0: f4e3 1dbd 36cd 0b3d 2adc 69bd 533a 313d
000003b0: a94d 56bd f2fb fcba 474c b13c 48f4 93bc
000003c0: d74b 0f3c 28ac a63c ca36 60bc f7b6 69bc
000003d0: bb0e 8c3c 3e22 55bd 68b7 5c3c 08f0 323d
000003e0: a1fd fb3c 3ac4 7b3d aa55 273d 1357 e6bc
000003f0: 3c15 833d 19fe 78bd 828d 1ebd 3ad4 9f3d
0.058212996 -0.034805063 0.0546909 -0.06477743 -0.028595358 0.036594477 0.030562598 0.06098405
0.010523062 0.043595105 0.15272342 -0.048014246 -0.028637234 0.03823819 -0.027788967 -0.0945959
-0.066991314 0.06635846 -0.0070672226 -0.0889507 -0.020624282 0.018603167 -0.05163997 0.034581512
-0.014530529 0.022802524 -0.02059241 0.06364192 0.07503093 0.037461914 0.074522436 0.030428208
0.06471547 0.08080682 0.047607634 0.0017590558 0.059030496 0.020212319 0.013470007 0.03263207
0.03385119 0.05139457 0.020885818 0.036753137 0.0150473025 0.07881955 -0.031558547 -0.014069679
0.09244323 0.013918886 0.0376825 0.052661017 0.07240039 0.019449547 0.061791178 0.036611952
-0.06354957 -0.04375852 -0.007902587 -0.06881739 -0.09967478 0.012927019 0.037337717 0.03903237
0.06149435 -0.043953907 0.029612906 0.0645975 -0.024797391 0.060824376 0.056505974 -0.026983729
0.07029504 -0.0008219143 0.028025733 0.015406315 0.016117634 0.018801372 0.0060654352 0.030743605
-0.052096896 0.08644444 -0.0268447 -0.049214847 -0.0073401793 -0.010046931 0.038814045 -0.004138325
-0.0036158063 0.006504995 -0.004918402 -0.0069606877 0.048318498 0.0131680425 -0.032163713 0.027469732
0.039462466 -0.026034957 0.06724254 -0.018162105 0.0442632 -0.013676901 0.024303596 0.07726005
-0.024924407 0.07814852 0.051267665 -0.044032123 -0.004790191 -0.05650946 -0.011135745 -0.046045978
0.037254922 -0.039210044 -0.0023439226 0.046068516 -0.04239379 0.03417637 0.03570195 -0.016439006
0.035195284 -0.06412604 0.046428353 -0.05085788 0.0016340349 -0.013278321 -0.027859861 0.045830823
-0.057782955 0.060970247 0.091165185 -0.05120053 0.030807747 -0.038985122 0.030320821 0.034961298
-0.11059936 0.014055166 0.0038722754 0.0001138598 -0.028743349 0.06119849 0.0077242143 -0.051738113
0.010571741 0.018637413 0.039476953 0.07369489 0.052636247 0.014981933 0.06777799 0.06294207
-9.347307e-05 0.026124215 -0.03510942 0.032427635 -0.048539642 0.021485483 -0.0015162667 0.041779693
-0.01858937 -0.036744323 -0.04193602 -0.049299683 0.032864157 -0.010915201 0.03795321 0.014597706
0.08244705 -0.05545243 0.022191966 0.044998232 0.048505917 -0.059443615 0.016420254 0.05471379
-0.03132815 -0.049496133 -0.012532997 0.057431985 0.061701804 0.051455934 -0.048172254 0.044376522
0.06001724 -0.08132989 0.02821913 -0.009880108 -0.031188548 0.019652426 0.040828742 0.011679777
0.028245682 -0.02130469 0.07148744 0.009709883 0.015525769 0.025697097 0.041654654 0.08015778
0.06778969 0.0060451273 0.14430897 0.027195277 0.05402779 0.076003015 0.023883931 -0.080069065
-0.017977819 0.004156036 -0.08240911 0.07828873 -0.031848446 0.030208139 0.06537728 -0.013208179
-0.001900976 -0.01704156 -0.060908105 0.06990098 0.048183065 -0.056736324 0.07851209 -0.0030835834
-0.04632093 -0.03587805 -0.05436094 0.0069847717 -0.026157154 -0.0074663693 0.017638365 0.036423028
-0.03854747 0.03413125 -0.05709473 0.043268513 -0.052320156 -0.001930116 0.021642817 -0.018060818
0.008746109 0.020345762 -0.013684938 -0.014264814 0.017096868 -0.05203461 0.013471462 0.043685943
0.030760588 0.061466433 0.04085318 -0.028117692 0.064005345 -0.0607892 -0.03870917 0.07804151

conv_layers.conv_2.bias f4 [64]
00000000: d014 02bd 0b2b b5bc 229d b2bc c816 143d
00000010: 7fd5 df3c 2e02 00bd 22a3 303c 2dc6 733b
00000020: d6f2 0cbb 7416 3f3a 383c 7f3d 03e4 353d
00000030: 0576 d63b 59cb 5e3c 0a1f babc abf7 88bc
00000040: f784 11bd 50b7 b23c e83d 0abd 863e 313d
00000050: c11c 1c3d ccd1 50bd 0132 da3c 4acb 5ebb
00000060: c06f c4bc 2eff 163d 6ae5 5e3c ecb3 fa3c
00000070: d392 30bc 8d5d a8bc c9bc afbc 028a 8a3c
00000080: 8357 583b a436 023d 11f4 333d 79a7 f53b
00000090: 47c8 983c cdf2 a3bb 9161 bebc 522d 933c
000000a0: b06b df3c 688e 1cbd 7740 443d 0854 41bd
000000b0: a038 963c eb9c ea3c 842b 943d ccb6 653d
000000c0: 9014 40bd ea64 013d e04f 3f3d 1f57 14bd
000000d0: 1488 993c 7e03 02bd dd86 033d 90ce 8f3c
000000e0: 2223 7b3c c728 db3c 8303 883d 0768 19bd
000000f0: 390b 14bd f43a a43d 71df a73b 39fa 59bd
-0.03175813 -0.022115251 -0.021803442 0.03615454 0.027323483 -0.03125208 0.010781081 0.003719698
-0.0021507046 0.00072894176 0.06231329 0.044406902 0.0065448307 0.013598287 -0.022719879 -0.01671966
-0.035527196 0.021815926 -0.033750445 0.043272518 0.03811336 -0.050981328 0.026635172 -0.0033995681
-0.023979068 0.036864452 0.013604501 0.030603372 -0.010777193 -0.020552421 -0.021452324 0.01691151
0.0033011145 0.03179039 0.04393393 0.007496771 0.018650187 -0.0050033093 -0.023239883 0.017965946
0.02727303 -0.038221747 0.04791304 -0.04719928 0.018337548 0.028639277 0.072348624 0.05608253
-0.04689461 0.03159038 0.046707034 -0.036215898 0.018741645 -0.03174161 0.032111038 0.017554551
0.0153282005 0.026752843 0.06641295 -0.037452724 -0.036143515 0.08019057 0.005123072 -0.053217147

conv_layers.conv_3.weight f4 [64, 64, 3, 3]
00000000: 34c0 a3bc cd93 923b d648 df3c c80c 8abb
00000010: 9ced aa3d 507f 3a3d d12e 0d3d ae6d 883c
00000020: 205f c33c 9e7b 2fbd 4f3a 37bc 7149 143b
00000030: 89ec c1bd cb5c 003d b61d 8d3d 9684 c0bb
00000040: bdd5 77bb bbad 9a3d 3e76 d2bb ecf2 053d
00000050: 0a88 82bd 0dd2 a6bd 0153 d63d 209d 583c
00000060: 1e8e f6bb 1b63 7bbc c4de 873d 5418 043c
00000070: 83fd c73b 880f ccbc 6cc8 26bd f675 8bbb
00000080: 0f75 8e3c c602 8fbd 20e6 c5bb b517 09bd
00000090: 9fa9 a4bb 3bee fc3c 7c61 823d f314 3fbd
000000a0: 99db fa3c e366 913d 830b 84bd 6ed1 643d
000000b0: ef19 92bc 830c efbc 937c 273d 9f43 20bd
000000c0: 97b5 163d e6b4 68bc bef1 aabc b023 66bc
000000d0: 048d 453c 405e 1cbb 5f5c 893d 0b93 d6bb
000000e0: 0adf 673c 74ef d63d b79d 203d db5b ea3c
000000f0: 928c c83c 2e62 023c 4bce 29bd f20e d13d
00000100: 8c41 113c af61 20bd b8ed 14bd 89fc 623b
00000110: c752 cab9 1cae 91bd beb3 7c3d c29a 973d
00000120: 7f33 5cbd 8e03 fd39 bad3 94bc 9418 943d
00000130: dcfa d03d ee00 a1bd 067a b23d c609 b0bb
00000140: 92ac 7f3c 35c3 5fbc 1da0 05be 036c 363c
00000150: d853 23bc 68b5 7c3e 59e7 d53c 1c5e 903d
00000160: 3975 413e 7f37 11bc ac5e 8bbd 37ad 5a3d
00000170: 56d1 9fbb e780 a0bd 250e 273e 52c4 ef3b
00000180: 351b 003d 589e 583d 73a5 74bc 1601 39bd
00000190: 2b8e 883d 9418 26bd 1606 93bc 9cf6 6c3d
000001a0: cffb d83b 28b5 56bc 3870 113d de4b 1d3c
000001b0: afc0 403d cb1a 8bba cbbf 183d aad8 0d3e
000001c0: d6ef 2abc e471 6c3d 1f5a f83c 51df a1bb
000001d0: 5ede 203d a767 acbc ec6f c83a 43ed 28ba
000001e0: 9082 383d d00a b4bb 2260 80bc ec0a babc
000001f0: 10ef 3e3d 2b12 103d bce5 a63c 40e4 07bc
00000200: c618 663d a2b1 d03d 0178 80bb 27c1 1b3d
00000210: 2a49 b13d 8344 d3bc 6820 b2bc 24e1 4d3d
00000220: df1c d9bc b058 c93c 0101 e73c f827 7a3a
00000230: a1a4 3d3d f495 b0bb 40a0 5e3d 0482 1e3d
00000240: aa88 bcbd bd6b 623c 708c 5cbd 530f cebd
00000250: 146c 7c3d 99f1 3e3d 4e7f 74bc 0ed8 0d3d
00000260: 9b34 ad3b 8ed1 753c 7a51 91bc 4a1a 6bbc
00000270: 516b 593c 73b0 81bc 733b b0bc 51ff 0abd
00000280: 1b84 ad3b 4823 9d3c c0a0 fbbc f833 d7bc
00000290: b096 1f3b 64e1 7b3c 6e78 a93c 744b 013c
000002a0: b885 f4bb 2c35 343c 7816 16bd 2b6e 3f3c
000002b0: cfa5 363d bef2 8ebb 8fda 36bd ca9a 133d
000002c0: e957 843d 42f5 123c 7c30 15b7 e7b8 5e3d
000002d0: 17a2 be3c b40f c73c 0521 0f3d 5b74 093c
000002e0: 1c4f e33c 4b80 113d 2a06 a3bc 47a3 b9bb
000002f0: 37b0 2e3d c8ea 443d 1705 2a3d 98f2 ecbc
00000300: 1807 473d fea2 053e c4c1 05bd 6713 f93c
00000310: 30ad a43c 3e47 4c3c 93a9 22bd baa8 593d
00000320: 3989 ea3c 5091 933c a1b3 093e 4f38 193d
00000330: 5a4a e03c 814a 95bc 3c8b 74bc d2c2 63bd
00000340: 1ba2 86bd 2eed 5d3c 0b23 eebd 45e8 73bd
00000350: 027c 523d 37e8 0abc 89aa dd3b 6554 023d
00000360: 93a1 2fbd 8335 543d 9ea7 c2bc 4178 7bbd
00000370: c340 053e c1ba a93c 6f1c 24bd bff2 a13d
00000380: 8afb d73c 223c c53b dbe3 bbbc dabd 923d
00000390: 35b1 4f3d 5c97 95bb 0847 353d 6c69 0d3d
000003a0: 64c0 2b3d c25b c9bd b1bf 233d 433d 2abd
000003b0: b30c 8bbc 8698 babc bcc9 6bbc 0003 3fba
000003c0: 6855 bf3b eec0 953c 967b 96bc 3684 17bd
000003d0: 6dd2 a73c e21d a6bd 3a63 f1bb e909 173e
000003e0: 72c7 a7bd 9749 9b3d 4a10 8b3d f1ff 6dbb
000003f0: df5a 2bbd a543 393d 7de8 723c b0c2 89bd
-0.01998911 0.0044731856 0.02725641 -0.0042129494 0.08346102 0.04553157 0.034468476 0.016653862
0.02384907 -0.0428425 -0.011183335 0.0022626782 -0.094689436 0.031338494 0.068904325 -0.0058751805
-0.0037816607 0.07552668 -0.006422787 0.03270237 -0.06373604 -0.08145533 0.104650505 0.013221055
-0.007524266 -0.015343453 0.06634286 0.008062441 0.006103219 -0.02490975 -0.04071848 -0.0042560054
0.017389802 -0.06982951 -0.006039396 -0.033469874 -0.005025103 0.030875316 0.0636625 -0.046650838
0.03062229 0.07099702 -0.06447508 0.05586379 -0.017834632 -0.02918077 0.040890288 -0.03912699
0.03679427 -0.014203286 -0.020867225 -0.0140465945 0.0120575465 -0.0023859888 0.067070715 -0.0065482906
0.014152298 0.10494891 0.03921291 0.028608253 0.024481092 0.007957978 -0.041456502 0.10207929
0.008865725 -0.03915566 -0.03635952 0.0034635386 -0.00038590116 -0.07113287 0.061694853 0.074025646
-0.053760048 0.0004825857 -0.018167365 0.072312504 0.10204098 -0.078615054 0.087146804 -0.005372259
0.015605109 -0.013657381 -0.1304936 0.01113415 -0.00996872 0.24678576 0.026111292 0.070492
0.18892373 -0.008863329 -0.068051666 0.053387847 -0.0048772497 -0.07837086 0.1631399 0.0073171044
0.031275947 0.052885383 -0.014932024 -0.04516705 0.066677414 -0.040550783 -0.017947238 0.057852373
0.006621815 -0.013104714 0.03550741 0.009600608 0.047058757 -0.0010612843 0.037292283 0.13852182
-0.010433158 0.057725802 0.03031641 -0.0049399515 0.039274566 -0.021045519 0.0015292144 -0.0006444046
0.04504639 -0.005494453 -0.01567084 -0.022710286 0.046614707 0.035173576 0.020373218 -0.008294165
0.05617597 0.10190131 -0.0039205556 0.038026 0.08656533 -0.025789505 -0.021743968 0.05026354
-0.026503025 0.024578422 0.02819872 0.0009542699 0.04629958 -0.0053889696 0.054352045 0.03869821
-0.09205754 0.013819632 -0.05384487 -0.100615166 0.06162651 0.046617124 -0.01492293 0.034629874
0.005285812 0.015003575 -0.017739046 -0.0143495295 0.013270215 -0.015831208 -0.021512723 -0.033934895
0.005295289 0.019181862 -0.0307163 -0.026269898 0.0024351291 0.0153735615 0.020687308 0.007891525
-0.0074622296 0.010999005 -0.03664252 0.011683981 0.04459172 -0.004362433 -0.044642027 0.03603629
0.0646208 0.008969607 -8.892381e-06 0.054375555 0.02327065 0.02429948 0.0349436 0.008389558
0.027747683 0.03552274 -0.0199004 -0.005665216 0.04264852 0.048075467 0.04150876 -0.028924271
0.04859075 0.13050458 -0.032655492 0.03040476 0.020102113 0.012468157 -0.0397125 0.053139426
0.028629886 0.018013626 0.13447429 0.037407216 0.027379204 -0.018224003 -0.014925774 -0.055605717
-0.06573888 0.013545318 -0.11627778 -0.05954768 0.051387794 -0.008478216 0.006764714 0.031818766
-0.0428787 0.051808845 -0.023761567 -0.06139398 0.13012986 0.020718934 -0.04006618 0.07907628
0.02636506 0.0060191313 -0.022935798 0.071651176 0.050706107 -0.0045651626 0.044257194 0.034524366
0.041931525 -0.098319545 0.039977733 -0.04156233 -0.016973829 -0.022777807 -0.014391359 -0.0007286519
0.0058390386 0.018280473 -0.018369477 -0.03699132 0.020486081 -0.081111684 -0.007366565 0.14749874
-0.08192338 0.075823955 0.06790216 -0.0036315883 -0.04183471 0.045230526 0.014825937 -0.06726587

conv_layers.conv_3.bias f4 [64]
00000000: 919e ecbc ffec eb3c 6f6a 4c3d 11a2 513c
00000010: f7d4 bdbc 3729 3cbc 214c 78bb 8451 07bd
00000020: 5c5c 3abd dc6e c4bb fc71 6b3d b86d e23c
00000030: 7953 10bd 1819 7b3c 8d2a 053d a096 1d3d
00000040: 1e02 373d 72de c93c 07c0 233d ca84 7b3d
00000050: 13aa 2f3c 5853 bfbc 387d 803c 76d1 143c
00000060: 90c5 80b9 2548 cc3c d944 0cbd e2f8 693b
00000070: 1e01 0bbd e175 a4bc 2c75 0cbd a68e 12bd
00000080: 09fc cdbc 742d 153d 0cff d5bc 1e54 353d
00000090: 96cd eebc 7fb6 453c 7867 133d dc5f e93a
000000a0: 0ca7 f739 6798 4a3d 07e1 643b 73b9 d7bc
000000b0: 0a21 1a3d cf17 153d 43be e3bc b7c1 823c
000000c0: 0b37 343d fbb8 3bbd 68a0 753b c38f c8bb
000000d0: 5fa5 0f3b 4045 2d3d 784b a33c e0cd ddbc
000000e0: d4a1 e6bb 22fd 0f3d a89c c13c 2f16 113d
000000f0: 98ec 19bd 522f 363c 17b9 2dbd 05b0 12bd
-0.028884204 0.028799532 0.04990619 0.012794987 -0.023172839 -0.011484436 -0.0037887173 -0.033036724
-0.045498237 -0.005994661 0.05748175 0.027640209 -0.035235856 0.015325807 0.032511283 0.038473725
0.044679753 0.024642203 0.039978053 0.061405934 0.010721701 -0.023355171 0.015684709 0.0090831425
-0.00024561258 0.024936745 -0.034245346 0.0035701324 -0.033936612 -0.02007574 -0.03429143 -0.03578057
-0.025144594 0.0364203 -0.026122592 0.044269674 -0.029150765 0.012067436 0.035987347 0.0017805058
0.0004723597 0.04946175 0.0034924166 -0.026333546 0.037629165 0.03639966 -0.027800685 0.015961511
0.043997806 -0.045830708 0.0037479643 -0.0061206534 0.0021918637 0.04230237 0.019933447 -0.027075708
-0.0070383344 0.035153516 0.02363427 0.035421547 -0.03757915 0.0111196805 -0.042412844 -0.035812397

linear_layers.0.weight f4 [64, 576]
00000000: 3c97 11bd 24cb b03c e8ea 073d 3edd a0bd
00000010: b7ec a03d 9f0c 083d e60f ccbc 698f fc3c
00000020: 4519 e9bc 70a1 b4b9 cc36 803c ea0e 0539
00000030: d2bb 33bd 8721 e03c e093 283d 2ba5 07bd
00000040: c1f2 023d 4448 173d f508 d03c 4e3b 6ebd
00000050: fbbd 21bd 433c ca3c 92a2 e3bd 22a3 76ba
00000060: dcdb 15bc 0174 bfbc 5fc3 04bd ee7a b7bc
00000070: 48c0 bbbb b66c 963c 5647 fabc 50de 8fbc
00000080: 3a42 11bd 20b2 c9bb 5042 713b 6b02 14bd
00000090: 407a 113b 401b 2ebd 8800 05bd 8b33 3c3d
000000a0: 65e7 2fbc a02f 01bd 7ea8 a93c 7296 cc39
000000b0: ae4f 973c db40 223c 46ee 36bb afef c03a
000000c0: 30a2 36bc 23c4 f43c 2a46 abbb a85f 9d3c
000000d0: 8e40 bd3c 191d bd3c e366 60bd 5df5 4b3b
000000e0: 7864 cbbc 42a8 093c c657 503b c72e 0fbc
000000f0: 7f2c 1a3d c7c4 d63c 8081 f0bc e53a 503d
00000100: 82f6 07bd d512 b33c 61b4 463d 129b 23bb
00000110: 19db d73c 1d75 26bc 388a 303d 3af7 d33b
00000120: 0631 92bc ee49 613c b3cc a8bc 026f 09bd
00000130: dafe 453c 380f 6b3c 361d 263d e749 dcbb
00000140: 6e55 a9bc 2807 b7bc aac0 2e3d 2432 8ebc
00000150: e663 39bc 75d6 393d 9a4e bc3c 798d 96bc
00000160: 79d4 f53c 1b7c 05bd 5205 98ba d734 84bd
00000170: 7846 ffb9 25d1 493d 4cb1 8dbd a890 2cbc
00000180: 8e12 d0bb 0e82 fa3c 7e03 163d 6383 24bc
00000190: 95f3 563d d029 423b 4aac 8cbc 02b5 1d38
000001a0: 90c2 d7bc 194d dbbc 9d92 b63c 5179 d5bc
000001b0: b23c 7fbd fe18 9bbc 2537 dfbc 5c12 ae3c
000001c0: 1193 16bd 2cbe 8b3c 2197 213d a837 1cbd
000001d0: f473 7b3c 3c93 68bd 325f b1bc d250 213d
000001e0: 029b 49bd c7e8 8cbc 35b3 1ebc 1181 893c
000001f0: 7b6b 13bb 978a 33bc f421 9abc b551 d5bc
00000200: fb76 babc 838e 253d 7342 64bc 7a74 4a3d
00000210: 543c e6bc e749 b83c 133a 8ab9 0cdd 1ebc
00000220: 8603 de3c 19d1 0a3d 2267 fdbc d3bf 58bb
00000230: e43c b4bc 06a2 243c d6c9 8c3c 2d0a 3fbd
00000240: 2a27 393d 2999 093d 9b89 abbb f41d e43c
00000250: f61a bb3c f669 fabc 7fbd 4e3c 554b 65bc
00000260: 5faa a53c 1515 833d bcca 65bd 32f0 66bd
00000270: 33c8 44bb 3aef 4ebd 2340 ea3b c413 593c
00000280: c262 ecbc 8604 193d 3cbe d6bc 42d1 703c
00000290: 7118 7d3c 022e ea3b 70a2 263d 0329 b5bb
000002a0: 4339 29bc a6c3 a93c 1e04 343d 3265 0f3d
000002b0: 2d2f c9bd 33bd 3c3c 153b f13b b9b4 d4bc
000002c0: 7b84 343d f458 273c 5fef 1ebd d263 953c
000002d0: 7f6e 81bc 4e0a 87bc e890 5c3b 5b46 b9bb
000002e0: 3327 123d 66c9 0fbd 5f7b 09bd e562 203d
000002f0: 6651 fe3c b129 b7bb a8aa 343d e0c2 083d
00000300: a3bf a5bc b731 173d 6cdc 1e3c bf82 8c3c
00000310: 3c24 c3bc dc04 dd3c 4aaf f33c bbde 1ebd
00000320: 2019 e3bc 2a3c d63c dc01 593c bb4c 293d
00000330: d02e 903c 10c9 233b f558 193d acbc 23bc
00000340: a49d 4a3c b052 303c 3a21 e53c 58cb eb3b
00000350: 2b0e e5bc 68df a33b 7b11 073d 46c4 c33c
00000360: 1a9a 893d ba47 43bd 907a aa3b cd49 c03c
00000370: 71dc 7fbd 4bb8 e0bc ad6f d4bc 9f39 053a
00000380: 82db c53c 3c91 bd3c cb7a 5d3d 40e4 1ebc
00000390: 4147 5bbc 8f69 523d a309 c3bc db0b b8bc
000003a0: 6a5f 0ebc b3ff d33c 6a7f 1ebd ef66 1b3d
000003b0: a23a f73c 59a6 6f3c 3e44 533c 5199 b53c
000003c0: 84c0 9fbb d2cb e4bb 0a98 18ba c257 c93c
000003d0: ebef 073b df56 573d 66cb 743c 640e e2bc
000003e0: 11e6 713c f864 52bc a4e4 b4bc dcfb 083d
000003f0: 2a16 83bd 9aa5 013d 1742 263d bbc8 1a3c
-0.03554462 0.02158124 0.03318301 -0.078546986 0.0785765 0.03321516 -0.024909925 0.030830102
-0.028454432 -0.00034452556 0.01565113 0.00012689424 -0.04388029 0.027359737 0.04115665 -0.0331165
0.03196979 0.036934152 0.025394896 -0.058162026 -0.03948782 0.024686938 -0.11114992 -0.0009408464
-0.009146657 -0.023370745 -0.032412883 -0.022397485 -0.005729709 0.018362384 -0.030551594 -0.017562062
-0.03546355 -0.0061552674 0.0036813207 -0.03613512 0.002219811 -0.042506456 -0.03247121 0.045947593
-0.010736321 -0.03153956 0.020710226 0.00039022003 0.018470611 0.009903158 -0.0027913018 0.0014719869
-0.011147067 0.029878682 -0.00522687 0.019210652 0.023102071 0.023085164 -0.05478562 0.003112159
-0.02482818 0.008401932 0.0031790598 -0.00873918 0.03764009 0.026216878 -0.029358625 0.050837416
-0.033194073 0.021859566 0.048511866 -0.0024964255 0.026349591 -0.010159758 0.043100566 0.0064686807
-0.017845642 0.013750536 -0.02060542 -0.03355313 0.012084687 0.01434689 0.0405552 -0.006722677
-0.020670619 -0.02234228 0.042664208 -0.017357893 -0.011315322 0.045370538 0.022986699 -0.018378006
0.030008541 -0.03258906 -0.0011598265 -0.06455391 -0.00048689893 0.04927172 -0.06918582 -0.010532536
-0.006349868 0.030579593 0.036624424 -0.010041091 0.05247839 0.0029626973 -0.017171998 3.7600294e-05
-0.026337892 -0.026770161 0.022286708 -0.026058825 -0.062313743 -0.018932816 -0.027247975 0.021248989
-0.036761347 0.017058454 0.03945077 -0.038139015 0.01534747 -0.05678104 -0.021651838 0.039383717
-0.049220093 -0.01720084 -0.009686281 0.016785176 -0.0022494483 -0.010958335 -0.018815018 -0.026039938
-0.022761812 0.040419113 -0.013931858 0.049427487 -0.028104939 0.022496177 -0.0002636468 -0.009696256
0.02710129 0.033890817 -0.030932967 -0.003307332 -0.022001691 0.010048395 0.017186087 -0.046640564
0.045203365 0.03359333 -0.0052349097 0.027846314 0.022840004 -0.030568104 0.012618422 -0.013995011
0.02022284 0.064005055 -0.056101546 -0.05638141 -0.0030026555 -0.050521113 0.007148759 0.013249341
-0.028855685 0.03735783 -0.026213758 0.014698328 0.015447722 0.007146598 0.040682256 -0.0055285706
-0.010328594 0.020723175 0.04394924 0.035008617 -0.09823451 0.011519718 0.0073617795 -0.025965082
0.044071656 0.010214079 -0.0388025 0.018236075 -0.015799759 -0.016484406 0.0033655707 -0.005654139
0.035681915 -0.035104178 -0.03356492 0.039156813 0.031044673 -0.005589687 0.044108063 0.033388972
-0.020232981 0.036912646 0.009696107 0.017152188 -0.023820989 0.026979856 0.02974667 -0.03878663
-0.027721941 0.026151735 0.013245072 0.04133294 0.017600447 0.0024991669 0.03743835 -0.009993713
0.012366686 0.010761902 0.027969945 0.0071958713 -0.027960857 0.0050009973 0.032975655 0.023897301
0.06718846 -0.047675826 0.005202599 0.023472691 -0.06246609 -0.027431628 -0.025932157 0.00050821336
0.024152521 0.023140542 0.054072183 -0.009697974 -0.0133836875 0.0513702 -0.023808306 -0.02246659
-0.008689741 0.025878763 -0.03869573 0.037939962 0.030179325 0.014627063 0.012894688 0.022167834
-0.0048752446 -0.006982305 -0.00058209954 0.024577979 0.0020742367 0.05257308 0.014941072 -0.027594753
0.014764325 -0.012841456 -0.02208168 0.033443317 -0.06400712 0.03165207 0.040590372 0.009447272

linear_layers.0.bias f4 [64]
00000000: f252 e8bc 5109 acbc 103f 48ba b351 e13c
00000010: 2c3b 97bc 7e25 b93b aa5b 47bb 9b27 283d
00000020: 2679 1dbd d77f d73c 61c7 1fbd d3ac 2d3d
00000030: 4239 6e3c b0b2 ac3c 55ba 19bd 8d76 053c
00000040: e761 0abd b0ef 21bd c76b c93b 83d4 13bd
00000050: cc5d bebc 2952 f03c f47b 1b3d 17b3 4b3c
00000060: 3883 57bc b145 323c 57d6 abbb 7489 e23c
00000070: a006 f2bc 8ab0 88bc 975f d43c 849e 0c3d
00000080: 3113 08bc 6350 243d 2853 063c 180c 57bc
00000090: 18eb 433c 7855 9c3c 6e14 df3b c037 ef3c
000000a0: c10e 7c3c 643d f63a e233 16bd 7225 4e3b
000000b0: 4a54 d43c 54e6 8dbc 5a34 a93c 13c8 613b
000000c0: c480 d2bb 288b e53c 6e66 09bd 2df3 07bd
000000d0: f50d 943c 854b 2a3d 0dc3 02bd a674 39bc
000000e0: 1cfa 9a3c 65f5 be3c 4109 f9bc 4291 903c
000000f0: 9378 afbc 4de1 013d 097c 303d 49eb 4439
-0.028359864 -0.021000536 -0.00076387916 0.027504778 -0.018460833 0.0056502214 -0.0030419626 0.041053396
-0.038445614 0.026306076 -0.039008502 0.042401146 0.0145400185 0.021081299 -0.037531216 0.0081459405
-0.033784773 -0.039535224 0.0061468813 -0.03609134 -0.023238085 0.029336052 0.037960008 0.012432835
-0.013153844 0.010880874 -0.005244057 0.027653433 -0.029544175 -0.016685743 0.025924487 0.03433086
-0.008305357 0.040115725 0.008198537 -0.013125442 0.011957906 0.019083723 0.0068078553 0.029201388
0.015384377 0.0018786606 -0.036670573 0.0031455425 0.025919098 -0.017321743 0.020654846 0.003445153
-0.0064240415 0.028020456 -0.03354495 -0.033190895 0.018073061 0.041575927 -0.031924296 -0.011319315
0.01891809 0.023310373 -0.03039992 0.01764739 -0.021419799 0.031709004 0.04308704 0.00018779667

linear_layers.2.weight f4 [32, 64]
00000000: 86a7 bbbd fa42 f3bd 6638 8c3d 3796 c73d
00000010: 7abc a03d d603 d4bc 2c0a b8bd 10d9 d4bd
00000020: b46b 2dbb e45d 08be 5cd4 213b e3bd 413d
00000030: bd82 2c3d a3b5 d8bd e03b 97bc 5f78 73bd
00000040: e306 52bd 91e7 033d 3065 23bc 0bb5 c23d
00000050: 7413 f6bd 4a48 87bd 0805 fb3d bbc1 f7bd
00000060: 7cdf 443d d9ae 38bd 7d7a 1cbd 5b97 dd3a
00000070: 2de1 f5bc 0096 daba a3b4 9cbd 2cb1 cbbb
00000080: 2996 033e 47fb d83c 454b bebb 90ec e33d
00000090: 9a80 1c3d 8838 20bd 463f 81bd 47f1 b4bd
000000a0: 7621 753b 287b d2bc 92ac c6bd 0599 7e3d
000000b0: fdfd 91bd be49 aaba f9bb af3d 8a34 c43d
000000c0: d46f e73d 2c15 4fbd 9ccb 2cbc 917f 5cbc
000000d0: 0242 8e3c 5215 81bd f4f8 95bd 366e bf3d
000000e0: 5589 963c 749f b03c 2582 033d 64ff 313d
000000f0: f2c4 adbd a664 c33d 8869 cf3d 249b d6bd
00000100: b843 2c3d b4ab cebd a890 823d 42e1 3cbd
00000110: 9257 edbd 7225 e8bd 92d3 b9bc 0b56 ff3c
00000120: ab33 e8bd c05d c6bd 9e4e f1bd 06fe a93d
00000130: 367d c93d 1049 b33c 4836 d23d d85a 993c
00000140: aa30 96bd e860 313d fe44 a03c a0ec 873d
00000150: 0496 0b3d 622b f73d 1136 33bd ea01 203c
00000160: 7873 8dbd bfe9 aa3d 6ee5 8ebd a624 883d
00000170: acdf 5e3d 8e14 dfbd 1613 01bb f166 10bb
00000180: 443f 9c3c 60a8 0cbd 372d dc3d 10cb 863c
00000190: 0f21 8abb 5cc8 163c 9a36 4cbd 11d9 c5bd
000001a0: 8d17 44bd dcd5 0f3d 66e8 c1bd d795 a3bd
000001b0: e73e 6e3c 20d6 ba3d b09d 85bc f0bc 993d
000001c0: 94d8 523d 156b b4bd 60b4 bc3d c62c 8cbd
000001d0: 48b5 ffbd 48e8 f23d 3052 303d 8200 d8bd
000001e0: 8f67 cf3d 9edd d0bd b0b2 87bd c5c0 d3bc
000001f0: b8d2 9c3d dc7c 353d f882 b7bd 10ec cd3c
00000200: 1601 a83d bab2 c03d 301a d23d f132 50bb
00000210: 06ef ca3d db93 c3bd c3d6 c6bd 976c f33d
00000220: 18ff df3d fc8e 0a3e 383d 55bd ed79 0e3c
00000230: 2816 8a3d 3f49 b8bc 6ead a8bd ce03 48bb
00000240: 6cde a23d 7050 783d 6a5b 44bd 789b e6bc
00000250: 0a6e 823d 1819 9bbc 5835 7d3c bb7f 6fbc
00000260: 6d1e 993d 263a aabc 976d 273d b5d6 903d
00000270: 0271 d63d 7265 303d 657f bf3d 0626 423c
00000280: b48e 6fb9 8877 7d3d b464 a23d cb39 eebc
00000290: d91d 8f3c c239 73bd a193 b3bc 143a 12be
000002a0: 9d5e e9ba c0ea 463d ac5c 91bd 7c43 e43d
000002b0: 53a8 073e 6fc3 15bd 1dc9 393d bad4 70bd
000002c0: 1365 163e 5c11 dc3d d3dc 773c 96ed 0d3e
000002d0: f9de e03c 3646 0c3d e387 0ebd 434f 103d
000002e0: 9c80 6b3d ac95 d93c f10e babd 578d 923d
000002f0: de76 a8bd c250 02be e724 94bc c2c4 033d
00000300: a492 583d ecee a3bd eef1 ce3d 81f8 1f3e
00000310: 906e 02bc 6b28 e53d 43cb e9bc f36f 87bd
00000320: 843c 443d 8e35 56bd 9838 993d aeaf 7d3d
00000330: 6e26 20bd b622 bf3c 249b bfbd 76e9 fe3d
00000340: 54aa 153d b3f9 a13c 1081 af3d 5a25 b5bc
00000350: d5cf 25bc 2ba6 363d ccb9 213d 6309 b23d
00000360: 3dcf e5bd adc1 433b 8d3e a9bd 2cdc 0c3e
00000370: f666 98bd 2368 eb3c ae96 5fbd 8253 6fbd
00000380: 1cfe bb3d 48f8 113e 39a2 96bd 7c8b 353d
00000390: cf3a 2dbd ac6e e63d 6082 4cbd e70c 6ebd
000003a0: 6264 56bd 92dc ecbd 60b9 48bd c0cb 793c
000003b0: 49f1 abbd 2f65 b83d 77c9 8b3d 9d56 1fbd
000003c0: 96dc ae3d 5240 d7bd d517 63bc 0777 b93d
000003d0: bc72 d63c 25c6 a23d 66e7 eb3d 5c41 1c3d
000003e0: d8ef 8b3d 1d56 943c ceaf 9d3d 272c 3b39
000003f0: f099 183c 9167 a03d 01ea bb3d e38e d93d
-0.09162812 -0.11878009 0.06846695 0.09745448 0.07848449 -0.025880735 -0.08986315 -0.10392964
-0.00264619 -0.13317066 0.0024693226 0.04730023 0.04211687 -0.105815195 -0.018461168 -0.059440967
-0.0512761 0.03220326 -0.009972855 0.095071875 -0.12015429 -0.06605585 0.12256819 -0.12097498
0.048064694 -0.045088623 -0.03820275 0.0016906069 -0.030014599 -0.0016676784 -0.07651641 -0.006216189
0.1285025 0.026487006 -0.0058073127 0.11129105 0.03820858 -0.039116412 -0.063108966 -0.088350825
0.0037403977 -0.025693491 -0.09700884 0.06215765 -0.071285225 -0.0012991948 0.08580775 0.095803335
0.113006264 -0.0505573 -0.010546591 -0.013458149 0.01736546 -0.06302895 -0.07322875 0.09347193
0.018376032 0.021560408 0.032106537 0.04345645 -0.0848483 0.095406815 0.1012755 -0.104788095
0.04205677 -0.100913435 0.06375247 -0.04611326 -0.11588968 -0.11335267 -0.022683892 0.031168958
-0.1133798 -0.0968585 -0.11782573 0.08300404 0.09838335 0.021885425 0.102642596 0.018720075
-0.07333501 0.043305308 0.019564148 0.066369295 0.034078613 0.120688215 -0.043752734 0.009766081
-0.069067895 0.08345365 -0.06977354 0.06647615 0.05441253 -0.10892592 -0.0019695214 -0.0022034014
0.019073136 -0.034340262 0.107508115 0.01645425 -0.0042153667 0.009203043 -0.04985676 -0.09660543
-0.047874022 0.03511606 -0.094681546 -0.07987564 0.014541364 0.09122872 -0.016310543 0.0750674
0.051476076 -0.08809487 0.09214091 -0.06844477 -0.124857485 0.118607104 0.04304713 -0.10546972
0.10127174 -0.1019852 -0.06625879 -0.025848756 0.07657379 0.04430853 -0.08960527 0.025136977
0.08203332 0.094090894 0.10258901 -0.0031768645 0.09908871 -0.095496856 -0.09708931 0.11885946
0.10937327 0.13531107 -0.052060336 0.008696062 0.06742507 -0.022495864 -0.08236204 -0.0030519846
0.0795258 0.060623586 -0.04793874 -0.028150305 0.063686445 -0.018932864 0.015454613 -0.014617856
0.074765064 -0.02077968 0.040875997 0.07072202 0.10470773 0.043065496 0.093504705 0.011849886
-0.00022845977 0.061881572 0.07929364 -0.029080292 0.017470287 -0.059381254 -0.02192098 -0.14279968
-0.0017804686 0.04856372 -0.07097754 0.11145684 0.13247804 -0.036563333 0.045357812 -0.05879662
0.14686994 0.107454985 0.015128332 0.13860163 0.027450072 0.034246646 -0.03479756 0.03523184
0.0574957 0.026560627 -0.09084881 0.07155865 -0.08225797 -0.12726119 -0.018084003 0.032170065
0.052874222 -0.08004555 0.10104738 0.1562214 -0.0079609305 0.1118935 -0.028539306 -0.066131495
0.047909275 -0.052297167 0.074814975 0.06193512 -0.03909915 0.023331981 -0.093557626 0.12446873
0.03653939 0.019772386 0.085695386 -0.022112537 -0.010120352 0.044592064 0.03948383 0.086931966
-0.11221168 0.0029870078 -0.08263884 0.13755864 -0.07441513 0.02873618 -0.05458706 -0.05842925
0.09179327 0.14254868 -0.0735516 0.044322476 -0.042292412 0.11251578 -0.049929023 -0.058117773
-0.052341826 -0.11565508 -0.049004912 0.015246332 -0.08395631 0.09003674 0.06825536 -0.03890096
0.08538167 -0.10510315 -0.0138606625 0.09055906 0.026177756 0.07947949 0.11518745 0.03814827
0.06832856 0.018107468 0.07699548 0.00017850158 0.009314045 0.07832254 0.09175492 0.106229566

linear_layers.2.bias f4 [32]
00000000: 9714 edbd 0c70 f33b b2bc 88bc 250b 60bd
00000010: ab16 493b ea36 74bd c076 efbb 27ac a83c
00000020: 7e77 dfbd 1a92 5e3d ba25 89bd be17 da3d
00000030: 4d6b b7bd 9816 a8bd 02b1 643d 2608 f0bd
00000040: 6190 da3d ef25 88bc 57b6 f43d 17d9 ef3d
00000050: 9ec5 26bd ac54 cebd 0ffd 8d3c 2603 453d
00000060: 3a95 823d 3bf8 a3bd 2e04 993b ca73 e8bd
00000070: d25a c1bc 5995 ce3d 9c67 c9bd 8615 f8bd
-0.11576193 0.0074291285 -0.01669154 -0.05469813 0.0030683677 -0.059622683 -0.0073078573 0.020589901
-0.10911463 0.054338552 -0.06696649 0.1064906 -0.08956013 -0.082074344 0.05583287 -0.11720304
0.10672069 -0.01661965 0.11948841 0.117113285 -0.040715806 -0.10074744 0.017332582 0.048098706
0.06376119 -0.080063306 0.0046696877 -0.1135021 -0.023602877 0.100870796 -0.09834215 -0.1211348
