learning_models/trained_weights/cnn_11.onnx (onnx, 498921 bytes, 16 tensors)

conv_layers.conv_0.weight f4 [16, 8, 3, 3]
0	0xbc768700	-0.015046835
1	0x3db3ba8e	0.08775817
2	0xbde2e6a5	-0.11079148
3	0x3c8b960b	0.01703932
4	0xbc9bf5ee	-0.019038167
5	0x3dc56624	0.096386224
6	0x3ddd7c68	0.10814744
7	0xbcc4f1b2	-0.02404103
8	0xbd9b06bf	-0.07569646
9	0xbd283ae9	-0.041071806
10	0xbdbdfea7	-0.09277087
11	0xbdd5092e	-0.104021415
12	0x3d53e7ad	0.051734615
13	0x3d9fadb7	0.07796805
14	0x3dbb7d75	0.091547884
15	0x3dc1fd11	0.09472097
16	0x3dcda63c	0.10041472
17	0xbda649f3	-0.081195734
18	0xbda8e4aa	-0.08246739
19	0xbd13b869	-0.03606454
20	0xbd9f7c3c	-0.07787368
21	0x3dd16102	0.10223581
22	0xbc425a50	-0.0118623525
23	0x3c56de17	0.013114474
24	0x3e015ea9	0.12633766
25	0x3c2072d6	0.009793004
26	0xbe0cdc7c	-0.13755983
27	0x3c9f6b96	0.01946048
28	0x3e4a0949	0.19730105
29	0x3e4cea0b	0.20011155
30	0xbdcc5af0	-0.099782825
31	0x3e8f0b28	0.279382
32	0x3d4a02a6	0.049318932
33	0xbd03c17f	-0.032166954
34	0x3d9f47a1	0.07777334
35	0x3d3ca9eb	0.046060484
36	0x3db43999	0.088000484
37	0xbdec89c3	-0.115497135
38	0x3ce71f35	0.028213123
39	0x3d8e6554	0.069529206
40	0x3d8db759	0.069197364
41	0x3da7665b	0.0817382
42	0xbd5db459	-0.05412707
43	0x3d639ba3	0.05556835
44	0xbd6f2fa3	-0.05839504
45	0xbd76a247	-0.060213353
46	0xbd902ea2	-0.070401445
47	0xbd1a55ee	-0.037679605
48	0xbdb621e0	-0.0889318
49	0xbdaae18a	-0.083437994
50	0xbda88efb	-0.08230396
51	0xbd8d2cbd	-0.06893299
52	0x3d07eeaf	0.03318661
53	0xbdbb5c02	-0.091484085
54	0x3db4ab00	0.08821678
55	0x3e0767af	0.13223146
56	0x3cb57b0b	0.022153398
57	0xbd8a5336	-0.067541525
58	0x3cf56edc	0.029960088
59	0x3c50887d	0.012727854
60	0xbd98e8c7	-0.07466274
61	0xbd45b27d	-0.048265923
62	0xbdb3f27f	-0.08786487
63	0x3d8ca114	0.06866661
64	0xbd1a6539	-0.03769419
65	0xbd03c469	-0.032169733
66	0xbde0b2b3	-0.10971584
67	0xbc9f5677	-0.01945041
68	0xbcdaa21f	-0.026688633
69	0xbd298a6e	-0.041391782
70	0x3d5004c3	0.05078579
71	0xbd984d5a	-0.07436629
72	0xbca76d83	-0.020437961
73	0x3c9285ff	0.01788616
74	0xbda83f2d	-0.08215175
75	0xbda5c109	-0.08093459
76	0x3e247db8	0.16063583
77	0x3e02f65c	0.12789291
78	0x3dc722a9	0.09723408
79	0x3cd59971	0.026074143
80	0xbd2ba0ea	-0.041901506
81	0xbd63970a	-0.055563964
82	0xbde08fe6	-0.109649464
83	0x3d8ab245	0.067722835
84	0x3786c2ec	1.6064812e-05
85	0xbdbf6682	-0.09345724
86	0xbd834b7d	-0.064108826
87	0xbd0242e7	-0.031802084
88	0xbdfb7d7c	-0.122797936
89	0x3dd722e9	0.105047055
90	0x3de9dcd3	0.11419072
91	0x3d53fe4b	0.051756185
92	0xbdaff9c0	-0.08592558
93	0x3d0157aa	0.031577744
94	0x3e101208	0.14069378
95	0xbd9dba8f	-0.07701599
96	0x3cddb378	0.027063116
97	0xbe0235ec	-0.12715882
98	0x3d1aed01	0.03782368
99	0x3d6879d8	0.056756824
100	0x3c04aa93	0.008097309
101	0xbd22d409	-0.039752994
102	0x3dcd4e35	0.100246824
103	0xbce5834e	-0.028016713
104	0xbdcefdaa	-0.10106976
105	0xbdc2960c	-0.095012754
106	0x3d2b27a4	0.04178585
107	0x3de0f103	0.10983469
108	0xbcd312a3	-0.025765723
109	0xbdb7462d	-0.08948932
110	0x3d4f2a93	0.05057771
111	0xbd4897c2	-0.048972853
112	0xbd703111	-0.058640543
113	0xbc60a4a5	-0.013711129
114	0xbd1cb1ca	-0.03825549
115	0x3d869149	0.0657068
116	0x3dda2c2e	0.10652958
117	0x3d0d1da1	0.034452084
118	0xbda18c39	-0.078880735
119	0x3d1504cd	0.03638153
120	0x3d8b1b44	0.0679231
121	0x3d4ccd0e	0.050000243
122	0xbd442a48	-0.047891885
123	0xbd1205f9	-0.035650227
124	0x3ce15501	0.027506353
125	0x3d18af74	0.0372767
126	0xbdc336ea	-0.095319584
127	0xbda6cb2f	-0.08144223
128	0x3dcb9470	0.099404216
129	0xbb899084	-0.004198136
130	0x3c33aeb7	0.010966948
131	0x3d2aa7d0	0.041663945
132	0x3da23c89	0.079217024
133	0xbb22fa07	-0.0024868266
134	0x3df0413d	0.11731193
135	0xba0790e0	-0.00051714294
136	0x3d572a03	0.0525303
137	0x3d84ea75	0.06490032
138	0xbd9653fb	-0.07340237
139	0x3c9dd9a4	0.019268818
140	0xbd503b02	-0.050837524
141	0xbca0184f	-0.019542841
142	0xbb921ade	-0.004458769
143	0x3c9b410c	0.018951915
144	0x3d04b631	0.032400314
145	0x3c65ec46	0.014033383
146	0xbd45f95d	-0.048333514
147	0x3db99ab8	0.090627134
148	0xbd6a0cc9	-0.0571411
149	0x3d96d4df	0.07364821
150	0x3d9d2376	0.07672779
151	0xbddb5515	-0.107095875
152	0x3de60730	0.1123184
153	0xbd072e03	-0.033002865
154	0xbdd3d0f9	-0.10342593
155	0x3df01dee	0.11724459
156	0x3d1db5cc	0.038503453
157	0x3c74280e	0.014902128
158	0x3d58d0a8	0.052933365
159	0xbd51ef5c	-0.05125366
160	0x3d91c1ad	0.07117019
161	0xbbf05d09	-0.0073353094
162	0x3c1f5d11	0.009726779
163	0x3d030634	0.031988338
164	0x3cf9a216	0.030472796
165	0xbb0ecf87	-0.0021791176
166	0xbdbd4b98	-0.09242934
167	0xbc4f7da8	-0.012664236
168	0x3dd0f702	0.10203363
169	0x3d807183	0.06271651
170	0x3d984d1e	0.07436584
171	0xbbbe9ce6	-0.0058170436
172	0x3df684b2	0.12037028
173	0x3d36a5d5	0.044591743
174	0xbdf3ecfe	-0.11910437
175	0x3de186ec	0.110120624
176	0xbe318b54	-0.17338306
177	0x3d4e2537	0.05032846
178	0x3e237c31	0.15965344
179	0xbd35ee1b	-0.04441653
180	0x3c8c628d	0.017136836
181	0x3dc4fd5f	0.09618639
182	0xbd43d804	-0.04781343
183	0x3e0e6e29	0.1390921
184	0xbc0d7884	-0.00863469
185	0x3d305a54	0.043054894
186	0x3df54b87	0.11977296
187	0x3b99b081	0.0046902304
188	0x3d7c9de8	0.06167403
189	0xbdb7c01a	-0.08972187
190	0x3d88bed7	0.06677025
191	0x3d9323a3	0.071845315
192	0xbe030e26	-0.12798366
193	0x3d48c4f6	0.04901596
194	0xbdd955e5	-0.10612086
195	0x3aaf05fe	0.0013353226
196	0xbca6c5bc	-0.020357959
197	0xbbc625e8	-0.0060469992
198	0x3de016db	0.10941859
199	0xbd3ad79b	-0.045615774
200	0x3d905921	0.0704825
201	0xbd9ddd2d	-0.077082016
202	0x3ddfbc79	0.1092462
203	0x3dfc5cf2	0.123224154
204	0x3d21e38a	0.03952364
205	0x3dc634d9	0.09678049
206	0x3d751fdf	0.059844848
207	0xbda25462	-0.07926251
208	0x3de1fbd1	0.11034358
209	0xbcb45f51	-0.022018107
210	0x3d24a238	0.040193766
211	0xbb7dd8da	-0.003873399
212	0xbb849b25	-0.004046815
213	0xbd990624	-0.07471874
214	0x3dc95b58	0.098318756
215	0x3bf66391	0.0075191935
216	0xbbcfbc15	-0.00633956
217	0x3da3b28a	0.07993038
218	0xbd2e2fd8	-0.042526096
219	0x3cdacd62	0.026709262
220	0xbdf7cd71	-0.12099732
221	0xbd8b6aba	-0.06807466
222	0x3c218814	0.009859104
223	0xbd2458a5	-0.0401236
224	0xbddfc7c3	-0.109267734
225	0xbc941bfd	-0.018079752
226	0x3dde1479	0.108437486
227	0x3d9996d2	0.0749947
228	0xbd092112	-0.033478804
229	0xbd78e2b9	-0.060763095
230	0xbd44769d	-0.04796468
231	0xbd50866c	-0.050909445
232	0x3cff0fe2	0.031135503
233	0xbd15194e	-0.036401086
234	0xbd0b5562	-0.034016974
235	0x3d9110d5	0.070832886
236	0xbd97a182	-0.07403852
237	0xbce8d8ac	-0.02842363
238	0xbe0c74f5	-0.1371649
239	0xbd9acfff	-0.07559203
240	0xbd49d226	-0.04927268
241	0xbdd1eda1	-0.10250402
242	0xbde18b5d	-0.110129096
243	0x3b9dd4ef	0.0048166434
244	0xbd38ff34	-0.045165256
245	0xbd6ae6a8	-0.057348877
246	0xbccd54e3	-0.025064891
247	0x3de420d7	0.11139076
248	0x3e5db308	0.21650326
249	0x3dc683f9	0.096931405
250	0x3e70a0d1	0.23498847
251	0x3e032ad6	0.1280931
252	0xbb4dcc3f	-0.0031402258
253	0x3ddd98ba	0.10820146
254	0xbd7f0da8	-0.062268883
255	0x3d9b9eb1	0.07598627

conv_layers.conv_0.bias f4 [16]
0	0x3dae4489	0.08509166
1	0x3dba0c9d	0.09084437
2	0xbce03c37	-0.027372463
3	0xbd9e79a8	-0.07738048
4	0xbbb2c4a1	-0.005455569
5	0x3dc83de5	0.097774304
6	0x3cd3f239	0.025872337
7	0xbda00f70	-0.078154445
8	0x3cef967a	0.029246558
9	0x3cf3b12f	0.029747574
10	0x3c2cd798	0.010549448
11	0x3d806844	0.06269887
12	0xbd32b991	-0.043634
13	0x3c88f57a	0.016718615
14	0x3e0b16ac	0.13582867
15	0x3d85a6fe	0.06525992

conv_layers.conv_1.weight f4 [32, 16, 3, 3]
0	0x3a52f35c	0.00080471276
1	0xbdb34fae	-0.08755432
2	0xbc483642	-0.012219967
3	0x3d8bd9ce	0.06828652
4	0xba084a7f	-0.0005199089
5	0x3d8ab26a	0.06772311
6	0xbd72dbb4	-0.059291556
7	0xbd44f622	-0.048086293
8	0x3d8c84da	0.06861277
9	0x3d7ec787	0.062202003
10	0x3c7fcb36	0.015612414
11	0x3d7e8534	0.06213875
12	0x3dddddbb	0.10833307
13	0xba7204ee	-0.0009232302
14	0x3cea0823	0.028568333
15	0x3d1b5b6c	0.037928984
16	0x3d8eb56d	0.06968198
17	0xbd8979ba	-0.067126706
18	0x3de28981	0.11061383
19	0x3da6a002	0.08135988
20	0x3d9292ee	0.07156931
21	0x3dbd9a67	0.092579655
22	0xbdf0c6ba	-0.11756654
23	0x3da4080a	0.08009346
24	0xbbd2d92d	-0.006434581
25	0xbcd54085	-0.026031742
26	0xbc36fa72	-0.011168109
27	0xbc3ef2bd	-0.011654553
28	0xbda596a4	-0.08085373
29	0x3c5717af	0.013128205
30	0xbdf8fd33	-0.12157669
31	0xbdf2ab23	-0.11849048
32	0x3dbc5e57	0.091976814
33	0x3d6657ee	0.0562362
34	0x3da49830	0.0803684
35	0xbd3ef7da	-0.04662309
36	0x3cf3b28f	0.02974823
37	0x3e077d41	0.13231374
38	0xbceb9ece	-0.028762247
39	0x3d89e108	0.067323744
40	0x3ce7123c	0.028206937
41	0xbd45aa38	-0.048258036
42	0x3d7ebdb6	0.06219264
43	0xbd6efd61	-0.05834711
44	0xbd67d6f7	-0.05660149
45	0xbdfe2be2	-0.12410714
46	0x3e0e2218	0.13880193
47	0x3ccd9cd6	0.0250992
48	0x3c1715ab	0.009221475
49	0x3df64c4f	0.120262735
50	0xbcda7c5e	-0.026670631
51	0xbb9c4d45	-0.0047699534
52	0x3dc386ae	0.095471725
53	0xbcbf424e	-0.023347046
54	0x3dd1d48a	0.10245617
55	0xbcc104c7	-0.023561848
56	0xbb3d2629	-0.0028861857
57	0x3dab0de9	0.083522625
58	0xbd08fb85	-0.033442993
59	0xbc385e3a	-0.011252934
60	0xbd8b2075	-0.067933
61	0xbd714f8a	-0.058913745
62	0x3cf39571	0.029734345
63	0xbd16fffb	-0.036865216
64	0x3d0dc7f0	0.034614503
65	0x3def3ff3	0.11682119
66	0x3dab10b5	0.08352796
67	0xbcdb6f32	-0.02678642
68	0x3d3a8629	0.0455381
69	0x3aad3460	0.0013214462
70	0x3d8db0b6	0.069184706
71	0xbd9d3eee	-0.076780185
72	0x3d863c81	0.06554509
73	0xbbd82e54	-0.0065973196
74	0xbd1311bc	-0.035905585
75	0xbc89f929	-0.016842442
76	0x3bdd05f0	0.0067450926
77	0xbc6dbec1	-0.014510811
78	0xbd34d5a0	-0.04414904
79	0x3c7ada0a	0.015310774
80	0x3da90306	0.0825253
81	0xbce760d8	-0.02824442
82	0x3d418948	0.047250062
83	0xbd6e1483	-0.05812503
84	0xbbe5e884	-0.0070162434
85	0x3c1c7a4b	0.009550641
86	0xbc733c73	-0.014845955
87	0x3d2527e7	0.040321257
88	0x3ca98b26	0.020696234
89	0xb8a91edc	-8.064296e-05
90	0x3d54bd4c	0.05193834
91	0x3cb5fb08	0.022214428
92	0xbd3e915b	-0.04652534
93	0xbda62bbb	-0.0811381
94	0x3b2e4e4c	0.0026596962
95	0x3dbdcb39	0.09267277
96	0x3ce3cf59	0.027808832
97	0x3c845843	0.016155368
98	0xbd7c313e	-0.0615704
99	0xbd6fbc86	-0.0585294
100	0xbd4ff12e	-0.050767116
101	0x3da81b5e	0.08208345
102	0xbd15d329	-0.03657833
103	0x3da23dfb	0.07921978
104	0x3d8a9a3d	0.067677
105	0x3d903448	0.07041222
106	0x3d570154	0.0524915
107	0x3d4f76f9	0.05065057
108	0x3dae21b0	0.08502519
109	0xbd30c4ee	-0.043156557
110	0x3bd88af9	0.0066083637
111	0xbda9c01a	-0.082885936
112	0xbd11df0d	-0.03561311
113	0x3d72d25d	0.05928265
114	0xbb883913	-0.0041571944
115	0xbd1f2f63	-0.03886355
116	0x3c16cd7a	0.009204263
117	0x3d2adb3f	0.041712996
118	0x3d82f3e8	0.06394178
119	0xbb9909d9	-0.0046703634
120	0x3d7d9044	0.06190516
121	0x3d2cabf9	0.042156193
122	0x3d3850fa	0.0449991
123	0x3d4d81eb	0.050172728
124	0x3d825fdb	0.06365939
125	0x3dcd6fec	0.10031113
126	0x3d677baa	0.05651442
127	0xbd05ee1f	-0.032697793
128	0x3d42dfe7	0.04757681
129	0x3d401faf	0.046905216
130	0xbd7933fc	-0.06084059
131	0x3d30bbba	0.04314778
132	0xbb047fd6	-0.0020217798
133	0xbd9b40a5	-0.07580689
134	0x3d4424bd	0.0478866
135	0xbd6a57be	-0.057212584
136	0x3c2d7dda	0.010589087
137	0x3d2afa8b	0.041742843
138	0xbc365d2c	-0.011130612
139	0xbd78550c	-0.060627982
140	0xbd05620c	-0.032564208
141	0x3bdc6965	0.006726431
142	0x3d6d553c	0.057942614
143	0x3cc28003	0.023742681
144	0xbce89b4f	-0.02839437
145	0x3d7e92f1	0.062151853
146	0x3d8de1bd	0.06927822
147	0xbcdd4905	-0.027012357
148	0x3aa526a9	0.0012600023
149	0xbbc7b038	-0.006094005
150	0xbc8dfd1c	-0.017332606
151	0x3dc6a4d0	0.09699404
152	0xbdb19467	-0.086708836
153	0x3cfa68a9	0.030567484
154	0x3c7530a1	0.014965207
155	0xbd5cee17	-0.053937998
156	0xbcc79a89	-0.02436568
157	0xbccf639f	-0.025316058
158	0x3d191308	0.037371665
159	0xbda0ad42	-0.07845546
160	0xbd4e1b44	-0.05031897
161	0xbc030e95	-0.007999082
162	0x3d30891b	0.043099504
163	0xbd50d40f	-0.050983485
164	0x3a171e91	0.00057647476
165	0x3d8370dd	0.06418011
166	0xbcded533	-0.02720127
167	0xbd26c67d	-0.040716637
168	0x3a7738ac	0.0009430747
169	0xbb2dd8a8	-0.0026526842
170	0xbdcc4133	-0.09973373
171	0x3d5304d5	0.05151828
172	0xbdeb86a4	-0.1150029
173	0x3d89793d	0.067125775
174	0x3dfdbeed	0.12389932
175	0x3dfb0c95	0.12258259
176	0xbd17f433	-0.03709812
177	0x3dbce035	0.092224516
178	0x3d4dc3d1	0.050235573
179	0xbc8ef6bc	-0.017451636
180	0x3ca56ed5	0.02019445
181	0xbc87b28e	-0.016564634
182	0x3b1b66b4	0.002371234
183	0xbb3b2e0e	-0.0028561386
184	0xbdc4064f	-0.09571516
185	0x3de70d04	0.112817794
186	0xbd7ffb7c	-0.062495694
187	0x3ca86872	0.020557616
188	0xbd4fe61c	-0.05075656
189	0xbd778cbe	-0.060436957
190	0xbd8fce3a	-0.070217565
191	0x3d539cb5	0.05166312
192	0x3d719724	0.05898203
193	0xbdfb5945	-0.12272886
194	0x3d5e82d5	0.05432399
195	0xbdb76a1a	-0.08955784
196	0xbcba888a	-0.022770185
197	0x3ced5074	0.028969027
198	0x3db8266a	0.08991702
199	0xbca84d7b	-0.020544758
200	0xbd87ecae	-0.0663694
201	0x3cfae3d9	0.030626224
202	0x3d8e1f41	0.06939555
203	0x3c924f65	0.017860124
204	0xbd92e3d8	-0.07172364
205	0x3d318179	0.043336365
206	0x3dfe6c40	0.12422991
207	0x3c977020	0.018486083
208	0xbd2b2bad	-0.0417897
209	0xbd14d84e	-0.036339097
210	0xbcd97e60	-0.026549518
211	0xbd930a01	-0.071796425
212	0xbdb5a6ed	-0.08869729
213	0xbc999e8c	-0.018752359
214	0xbc950c4a	-0.018194336
215	0x3ce7cea6	0.02829678
216	0xbd31f85d	-0.04344975
217	0x3d7f6299	0.06234989
218	0x3c862211	0.016373666
219	0xbd85ee0f	-0.06539547
220	0x3bda0d07	0.006654385
221	0xbcc6883d	-0.024234885
222	0x3dbab93d	0.09117363
223	0x3c063404	0.008191112
224	0xbd9a37be	-0.07530163
225	0xbcd6867f	-0.02618718
226	0xbdb90b9f	-0.0903542
227	0x3d61c5da	0.055120327
228	0xbd79a726	-0.06095042
229	0x3d7eefaa	0.06224028
230	0xbde13fdb	-0.109985076
231	0x3dbb1a4d	0.09135876
232	0x3d32ef98	0.043685526
233	0x3c1600a0	0.009155422
234	0x3d013e9e	0.031553857
235	0xbb9be820	-0.004757896
236	0xbd9ce1e5	-0.076602735
237	0x3da450c2	0.08023216
238	0x3c1c1fce	0.009529067
239	0x3dc17a40	0.094471455
240	0xbd211e41	-0.039335493
241	0xbd587fe6	-0.05285635
242	0x3d8864db	0.06659862
243	0x3d725299	0.059160803
244	0xbd69da13	-0.057092737
245	0xbca081c7	-0.019593133
246	0x3e188f5c	0.14898437
247	0x3c8d3922	0.017239157
248	0xbd9d901d	-0.07693503
249	0x3ccf28db	0.025288036
250	0xbd1c20d2	-0.038117237
251	0x3bb8419e	0.0056230566
252	0xbd65639b	-0.056003194
253	0xbd8b5bf7	-0.0680465
254	0x37130a3a	8.764264e-06
255	0x3dc13d7d	0.09435556

conv_layers.conv_1.bias f4 [32]
0	0x3d9ba31f	0.07599472
1	0xbd03d59d	-0.03218614
2	0x3c0b095a	0.008486116
3	0x3d1caa50	0.03824836
4	0xbcdb8427	-0.026796414
5	0x3cde4615	0.027133027
6	0xbd1a5c48	-0.037685663
7	0x3d9acc88	0.075585425
8	0x3da40df4	0.08010474
9	0x3dc1aef7	0.094572
10	0x3cfffbb0	0.031247944
11	0xbd067854	-0.032829598
12	0x3dae28e4	0.08503893
13	0x3db783cb	0.089606844
14	0xbb64120a	-0.0034800791
15	0x3cfb4c9d	0.03067618
16	0x3d5eb58f	0.054372367
17	0xbd19f8e2	-0.03759087
18	0x3c75038b	0.014954458
19	0xbd37460d	-0.04474454
20	0x3d9eec8f	0.07759964
21	0x3cb7a156	0.022415798
22	0xbd78fb6c	-0.06078665
23	0x3b905b85	0.004405441
24	0x3d50705c	0.050888404
25	0x3dcd8552	0.100351945
26	0xbc908ece	-0.01764622
27	0x3a8a995c	0.0010574269
28	0xbd0d633c	-0.034518465
29	0x3d0f4ddd	0.034986366
30	0x3da4b2a8	0.080418885
31	0x3d80fcb9	0.06298203

conv_layers.conv_2.weight f4 [64, 32, 3, 3]
0	0x3d633e36	0.05547925
1	0xbd1ba6e9	-0.038000975
2	0x3d3aca38	0.045603007
3	0xbd8bba36	-0.06822626
4	0xbd0736a2	-0.033011086
5	0x3cd4ef85	0.025993118
6	0x3cd72ecc	0.026267432
7	0x3d65ce8a	0.056105174
8	0x3af3dc91	0.0018605163
9	0x3d337c39	0.04381964
10	0x3e1c6169	0.15271534
11	0xbd404265	-0.04693832
12	0xbce31406	-0.027719509
13	0x3d16b9e2	0.036798365
14	0xbcdb0e16	-0.026740115
15	0xbdc7506d	-0.09732137
16	0xbd959240	-0.073032856
17	0x3d8aca2d	0.06776843
18	0xbc1bc51d	-0.009507445
19	0xbdb9c68b	-0.09071072
20	0xbcf48599	-0.02984886
21	0x3c82edaa	0.015982468
22	0xbd5f59c5	-0.05452897
23	0x3cd8fd9b	0.026488116
24	0xbc9514de	-0.018198427
25	0x3c9e5dd3	0.019331848
26	0xbcdcfeb6	-0.026976924
27	0x3d753a44	0.05987002
28	0x3d910b93	0.07082286
29	0x3d075071	0.0330357
30	0x3d8fac73	0.07015314
31	0x3cded913	0.027203118
32	0x3d769668	0.060202032
33	0x3d9eab24	0.07747486
34	0x3d38837e	0.045047276
35	0xbb436688	-0.0029815752
36	0x3d8043d2	0.06262936
37	0x3cafc7ca	0.021457572
38	0x3c87009a	0.016479779
39	0x3d14f4e9	0.036366377
40	0x3d17b524	0.037037984
41	0x3d58f833	0.052971076
42	0x3cccb818	0.024990126
43	0x3d18abd0	0.03727323
44	0x3c93933b	0.01801454
45	0x3daa6928	0.08320838
46	0xbce4f1b0	-0.027947277
47	0xbc675146	-0.014118498
48	0x3dcc8960	0.0998714
49	0x3c942ccf	0.018087773
50	0x3d195430	0.037433803
51	0x3d6ab04f	0.057297047
52	0x3d9d5a49	0.07683236
53	0x3ca72ddd	0.020407612
54	0x3d6a90d6	0.057267033
55	0x3d13f274	0.036119893
56	0xbd8831e0	-0.06650138
57	0xbd446616	-0.04794892
58	0xbc3b5fcd	-0.011436415
59	0xbd96df79	-0.07366843
60	0xbdd4118d	-0.1035491
61	0x3c25e67a	0.010125751
62	0x3d022e6d	0.031782556
63	0x3d20c2b8	0.0392482
64	0x3d71f770	0.059073865
65	0xbd365d81	-0.044522766
66	0x3d04672e	0.032324962
67	0x3d848564	0.06470755
68	0xbcc6b677	-0.024256928
69	0x3d80f1d8	0.06296128
70	0x3d5ff854	0.054680184
71	0xbcd95b11	-0.026532682
72	0x3d8e4516	0.06946771
73	0x3aa8e08a	0.0012884301
74	0x3ce5c890	0.028049737
75	0x3c690448	0.014222212
76	0x3c828d9c	0.015936665
77	0x3c876153	0.0165259
78	0x3bcbdb25	0.0062211924
79	0x3cfb6c39	0.030691253
80	0xbd640e2a	-0.05567757
81	0x3daf6ff5	0.08566276
82	0xbccffbed	-0.025388682
83	0xbd623af4	-0.055232003
84	0xbbdd5d23	-0.0067554875
85	0xbc220b12	-0.009890335
86	0x3d072cac	0.033001587
87	0xbb824c23	-0.0039763614
88	0xbb6897dd	-0.0035490908
89	0x3a9fe365	0.0012198506
90	0xbc2d22e0	-0.010567397
91	0xbc6f344f	-0.014599874
92	0x3d403c0f	0.046932276
93	0x3bf8639a	0.007580233
94	0xbd0e7489	-0.034779105
95	0x3cdb2d6c	0.026755057
96	0x3d168c7a	0.036755063
97	0xbcd5891c	-0.026066355
98	0x3d8ac17c	0.067751855
99	0xbc66338f	-0.014050378
100	0x3d4c372a	0.049857296
101	0xbc2b0169	-0.010437348
102	0x3d00fb53	0.03148968
103	0x3db0757c	0.08616158
104	0xbcb2707b	-0.02178215
105	0x3da0f0b5	0.07858411
106	0x3d4b6ecb	0.049666207
107	0xbd225511	-0.039631907
108	0xbba94bc9	-0.005166505
109	0xbd7d2a6b	-0.06180803
110	0xbc65b14a	-0.01401932
111	0xbd416639	-0.047216628
112	0x3d0845d3	0.033269715
113	0xbd273722	-0.040824063
114	0xbb5b25da	-0.003343931
115	0x3d2c0d26	0.042004727
116	0xbd34f132	-0.044175334
117	0x3d1052c7	0.035235193
118	0x3d22ff91	0.03979451
119	0xbc858047	-0.016296519
120	0x3d1b1a52	0.037866898
121	0xbd7c3b78	-0.06158015
122	0x3d371cd8	0.044705242
123	0xbd44decf	-0.04806405
124	0x3b679925	0.0035339084
125	0xbc96fb4b	-0.018430373
126	0xbce62e54	-0.028098263
127	0x3d3288ef	0.04358762
128	0xbd5f829d	-0.054567922
129	0x3d799a4a	0.060938157
130	0x3dba369c	0.09092447
131	0xbd46c5a1	-0.048528317
132	0x3cf9555e	0.030436214
133	0xbd1f3a9d	-0.038874257
134	0x3cff3a0f	0.031155614
135	0x3cf33f12	0.02969316
136	0xbde9a018	-0.114074886
137	0x3b56a090	0.0032749511
138	0xbb390eeb	-0.0028237652
139	0xbb84ed1a	-0.004056585
140	0xbd260fd0	-0.040542424
141	0x3d64f286	0.05589535
142	0x3b56c600	0.0032771826
143	0xbd763b88	-0.060115367
144	0x3bfb9c92	0.0076785767
145	0x3c74033b	0.014893348
146	0x3d2da2a6	0.04239144
147	0x3d91aec3	0.07113411
148	0x3d5ac97d	0.05341481
149	0x3c86d3cd	0.016458416
150	0x3d8a1dea	0.06743987
151	0x3d817ff0	0.0632323
152	0x399702ed	0.00028803144
153	0x3ccdf836	0.02514277
154	0xbd0e3515	-0.03471859
155	0x3d04ded4	0.032439068
156	0xbd46948c	-0.04848151
157	0x3cb014ef	0.021494357
158	0xbac6eed5	-0.0015177379
159	0x3d330f36	0.04371568
160	0xbc959280	-0.018258333
161	0xbd17213b	-0.036896925
162	0xbd3893ed	-0.045062948
163	0xbd4b3f0b	-0.04962067
164	0x3ceb9f91	0.02876261
165	0xbc46292b	-0.012094776
166	0x3d1941f2	0.037416406
167	0x3c3c5dca	0.01149697
168	0x3da50dea	0.080592945
169	0xbd67eb4b	-0.056620877
170	0x3c9437e0	0.01809305
171	0x3d385011	0.044998232
172	0x3d46ae24	0.048505917
173	0xbd737b26	-0.059443615
174	0x3c8683c5	0.016420254
175	0x3d601b91	0.05471379
176	0xbd0051f2	-0.03132815
177	0xbd4abc75	-0.049496133
178	0xbc4d5733	-0.012532997
179	0x3d6b3dcd	0.057431985
180	0x3d864a5e	0.06557153
181	0x3d6f0cad	0.058361698
182	0xbd3f8913	-0.046761584
183	0x3d4e2029	0.05032364
184	0x3d80f921	0.062975176
185	0xbd9da7b5	-0.07698003
186	0x3cdcf60f	0.026972799
187	0xbc55d9d0	-0.013052419
188	0xbcd79ea4	-0.026320763
189	0x3c965334	0.018350221
190	0x3d0ee644	0.034887567
191	0x3c4d40a8	0.012527622
192	0x3cd95a70	0.026532382
193	0xbcd3a82d	-0.025837028
194	0x3d9542d5	0.07288138
195	0x3c3648ef	0.011125787
196	0x3c74762a	0.014920751
197	0x3cf3f078	0.02977775
198	0x3d365cfe	0.044522278
199	0x3da59007	0.08084112
200	0x3d9130f7	0.070894174
201	0x3c184ed5	0.009296139
202	0x3e162b2a	0.14664903
203	0x3cfcb2ee	0.03084704
204	0x3d72008c	0.059082553
205	0x3d9b9be2	0.07598092
206	0x3ce6d844	0.028179295
207	0xbdab887b	-0.08375641
208	0xbcdc98b8	-0.02692829
209	0xbaaf70fb	-0.0013385111
210	0xbdb28785	-0.087172545
211	0x3d88a79d	0.06672595
212	0xbd1416bf	-0.036154505
213	0x3cd680e5	0.026184509
214	0x3d695dd9	0.056974266
215	0xbc828b0e	-0.015935447
216	0x3a94ca52	0.00113518
217	0xbc63e25d	-0.01390895
218	0xbd6b89d6	-0.057504497
219	0x3da0adcf	0.07845651
220	0x3d64f656	0.055898987
221	0xbd5db069	-0.054123316
222	0x3da46fa2	0.08029105
223	0xbb907311	-0.0044082482
224	0xbd2ae5c7	-0.04172304
225	0xbd21102a	-0.039322056
226	0xbd67180b	-0.056419414
227	0xbaf72a42	-0.0018857198
228	0xbce370b4	-0.027763702
229	0xbc230d80	-0.009951949
230	0x3c076a11	0.008265034
231	0x3d09ef7c	0.033675656
232	0xbd28ef18	-0.041243643
233	0x3cdf1921	0.027233662
234	0xbd82de67	-0.06390076
235	0x3d2a8f5b	0.04164062
236	0xbd42aa08	-0.047525436
237	0xbc001d75	-0.007819523
238	0x3cb10b33	0.021611786
239	0xbc668054	-0.014068682
240	0x3bcead7c	0.006307302
241	0x3cbc7442	0.023004655
242	0xbc4ae899	-0.012384557
243	0xbc98361b	-0.018580487
244	0x3c7f27d9	0.015573465
245	0xbd636443	-0.05551554
246	0x3c30e57d	0.010796902
247	0x3d2c9262	0.04213179
248	0x3ce25c25	0.027631829
249	0x3d71b2f2	0.059008546
250	0x3d1ec49a	0.038761713
251	0xbd06f31e	-0.0329467
252	0x3d958284	0.073002845
253	0xbd793c6b	-0.060848635
254	0xbd15e814	-0.03659828
255	0x3db4a69c	0.08820841

conv_layers.conv_2.bias f4 [64]
0	0xbd11939f	-0.035541173
1	0xbcb5317d	-0.022118324
2	0xbcced088	-0.02524592
3	0x3d0ed3d1	0.034869973
4	0x3cd412f6	0.025887948
5	0xbd0261cb	-0.031831544
6	0x3c3cd0f1	0.011524425
7	0x3bd1506d	0.0063877613
8	0xbb81f085	-0.0039654397
9	0x39cb9893	0.00038832854
10	0x3d6b831f	0.057498094
11	0x3d2a7b52	0.041621514
12	0x3beaf72c	0.0071705785
13	0x3c1a8118	0.009430192
14	0xbcc52eaa	-0.024070103
15	0xbca7ce4c	-0.020484112
16	0xbd167e67	-0.03674164
17	0x3ca8b459	0.020593809
18	0xbd0a3de8	-0.033750445
19	0x3d24a91e	0.040200345
20	0x3d0a3339	0.033740256
21	0xbd50816e	-0.050904684
22	0x3cc32823	0.02382285
23	0xbb830473	-0.003998333
24	0xbce515ff	-0.02796459
25	0x3d0cd101	0.03437901
26	0x3c5ee56a	0.013604501
27	0x3cf17151	0.029472979
28	0xbc26eab6	-0.010187795
29	0xbcabbf60	-0.020965278
30	0xbccf087f	-0.025272606
31	0x3c8b0b65	0.016973207
32	0x3ac04cc5	0.0014671317
33	0x3cfc55be	0.030802604
34	0x3d25799d	0.040399183
35	0x3bb6b55c	0.005575819
36	0x3c99eed7	0.018790646
37	0xbc17ba40	-0.009260714
38	0xbcc54d1e	-0.024084624
39	0x3c957756	0.01824538
40	0x3ce71d4d	0.028212214
41	0xbd2d34ab	-0.042286556
42	0x3d3bfe12	0.045896597
43	0xbd3c1b73	-0.045924615
44	0x3c86dcae	0.01646265
45	0x3cdcc351	0.026948603
46	0x3d8b2c55	0.06795565
47	0x3d6234eb	0.055226248
48	0xbd3f9e04	-0.046781555
49	0x3cff2023	0.031143254
50	0x3d3c4739	0.04596636
51	0xbd0ca7ef	-0.03433984
52	0x3c8d810f	0.017273454
53	0xbd027ae7	-0.03185549
54	0x3cf03abf	0.029324887
55	0x3c90ca58	0.01767461
56	0x3c31ee51	0.010860042
57	0x3cffb72f	0.031215278
58	0x3d863858	0.065537155
59	0xbd280d49	-0.041028295
60	0xbd12a639	-0.035803054
61	0x3da0966f	0.07841193
62	0x3bd9d492	0.006647655
63	0xbd559614	-0.05214508

conv_layers.conv_3.weight f4 [64, 64, 3, 3]
0	0xbc91bc87	-0.017790092
1	0x3b87e29d	0.0041468875
2	0x3ce732da	0.02822249
3	0xbb3a4f87	-0.002842875
4	0x3dae2fc6	0.08505206
5	0x3d43abd6	0.047771297
6	0x3d163f57	0.0366815
7	0x3c87fb45	0.016599307
8	0x3cc7f631	0.024409385
9	0xbd218bae	-0.03943985
10	0xbc34561f	-0.011006861
11	0x3b2f8236	0.0026780493
12	0xbdbf24a9	-0.09333164
13	0x3d033570	0.032033384
14	0x3d910dd4	0.07082716
15	0xbb7efdf6	-0.0038908697
16	0xbb4e3bb7	-0.0031468698
17	0x3d9e2cd5	0.07723395
18	0xbb275de2	-0.0025538136
19	0x3d026fe8	0.031845003
20	0xbd82b0f1	-0.06381405
21	0xbda7310c	-0.08163652
22	0x3dd8f4ee	0.10593592
23	0x3c727a9c	0.01479974
24	0xbbbcfeee	-0.0057676947
25	0xbc8e9848	-0.017406598
26	0x3d8e5b6f	0.06951033
27	0x3c2173ad	0.009854239
28	0x3bd81998	0.006594848
29	0xbcc4036c	-0.023927413
30	0xbd225feb	-0.039642256
31	0xbb72591e	-0.0036979388
32	0x3c983232	0.018578622
33	0xbd8c419a	-0.0684845
34	0xbbaea656	-0.0053298874
35	0xbd05bf55	-0.03265317
36	0xbb0e5672	-0.0021719006
37	0x3d016e92	0.03159959
38	0x3d84eaf1	0.06490124
39	0xbd38c483	-0.045109283
40	0x3cfd898a	0.030949373
41	0x3d93f130	0.07223737
42	0xbd81f235	-0.063450254
43	0x3d65291e	0.055947416
44	0xbc8eb202	-0.017418865
45	0xbcef0c83	-0.02918077
46	0x3d277c93	0.040890288
47	0xbd20439f	-0.03912699
48	0x3d16b597	0.03679427
49	0xbc68b4e6	-0.014203286
50	0xbcaaf1be	-0.020867225
51	0xbc61fb4c	-0.013792824
52	0x3c458d04	0.0120575465
53	0xbb1c5e40	-0.0023859888
54	0x3d90110f	0.07034504
55	0xbb19848d	-0.0023424954
56	0x3c511cfd	0.012763259
57	0x3dde2fcc	0.1084896
58	0x3d34cebb	0.044142466
59	0x3cd442d9	0.025910782
60	0x3c9d9b35	0.019239048
61	0x3c22066e	0.009889228
62	0xbd31cf0f	-0.043410357
63	0x3dd771b9	0.10519738
64	0x3c2ba7fa	0.01047706
65	0xbd29aa95	-0.041422445
66	0xbd113884	-0.035454288
67	0x3b814e23	0.003946082
68	0x39a9126a	0.0003224791
69	0xbd90912f	-0.070589416
70	0x3d8483c8	0.06470448
71	0x3d9c4bcd	0.07631645
72	0xbd5965fa	-0.053075768
73	0xb9b4bbe4	-0.00034472265
74	0xbc838d22	-0.016058508
75	0x3d976a5f	0.073933356
76	0x3dd4f070	0.10397422
77	0xbda0620a	-0.078311995
78	0x3db22ac0	0.0869956
79	0xbbd79da7	-0.006580073
80	0x3c7e374f	0.015516116
81	0xbc3483cd	-0.011017752
82	0xbe08ae3b	-0.13347714
83	0x3c3b3be1	0.01142785
84	0xbc1078f0	-0.008817896
85	0x3e7f5f32	0.24938658
86	0x3cda062e	0.026614275
87	0x3d97d372	0.07413377
88	0x3e425f91	0.18981768
89	0xbc1ea3f2	-0.009682642
90	0xbd8336e9	-0.06406958
91	0x3d55ebd7	0.052226868
92	0xbb24cb86	-0.0025145723
93	0xbda023ac	-0.07819304
94	0x3e28cf43	0.16485314
95	0x3c0a657e	0.008447049
96	0x3d096004	0.033538833
97	0x3d542367	0.051791575
98	0xbc50f6d8	-0.012754165
99	0xbd307748	-0.043082505
100	0x3d87577c	0.06608483
101	0xbd220cc3	-0.03956295
102	0xbc841cb4	-0.016126968
103	0x3d6e77d5	0.05821975
104	0x3c058af3	0.008150804
105	0xbc3742ba	-0.011185342
106	0x3d0d9348	0.034564286
107	0x3c4b3423	0.012402567
108	0x3d5477d3	0.051872086
109	0x38b41c0a	8.5882915e-05
110	0x3d1d4e0c	0.03840451
111	0x3e0f64b0	0.14003253
112	0xbc3eec4e	-0.011653019
113	0x3d62d86d	0.05538218
114	0x3cd4cbb5	0.025976041
115	0xbb8fa7ad	-0.004384002
116	0x3d1682bd	0.036745775
117	0xbcae9016	-0.02130894
118	0x3b356d6c	0.0027683629
119	0xba14c2b8	-0.00056747673
120	0x3d426266	0.04745712
121	0xbb714130	-0.0036812536
122	0xbc7c3c02	-0.015395166
123	0xbcaf85e8	-0.021426156
124	0x3d4167aa	0.047218002
125	0x3d11deaa	0.03561274
126	0x3c9d6cb9	0.019216882
127	0xbb9d87f1	-0.0048074652
128	0x3d648100	0.055787086
129	0x3dd579ec	0.104236454
130	0xba7d2d51	-0.0009657937
131	0x3d199609	0.0374966
132	0x3db222dd	0.08698056
133	0xbcbeaf55	-0.023276964
134	0xbcd85eff	-0.026412485
135	0x3d4f2d85	0.05058052
136	0xbcdb0c01	-0.026739122
137	0x3cbc2394	0.022966184
138	0x3cfc4f9c	0.03079968
139	0x3b4ff420	0.0031731203
140	0x3d3a2ffa	0.04545591
141	0xbba51da1	-0.0050389324
142	0x3d677cdd	0.056515563
143	0x3d18af9f	0.03727686
144	0xbdb77886	-0.08958535
145	0x3c664148	0.01405365
146	0xbd5deded	-0.05418198
147	0xbdcc342f	-0.09970891
148	0x3d802be1	0.06258369
149	0x3d483431	0.0488779
150	0xbc592841	-0.013254226
151	0x3d113d0c	0.03545861
152	0x3bf5a467	0.007496405
153	0x3c837bac	0.016050182
154	0xbc899b99	-0.016797828
155	0xbc6b1a4a	-0.0143495295
156	0x3c596b51	0.013270215
157	0xbc81b073	-0.015831208
158	0xbcb03b73	-0.021512723
159	0xbd0aff51	-0.033934895
160	0x3bad841b	0.005295289
161	0x3c9d2348	0.019181862
162	0xbcfba0c0	-0.0307163
163	0xbcd733f8	-0.026269898
164	0x3b1f96b0	0.0024351291
165	0x3c7be164	0.0153735615
166	0x3ca9786e	0.020687308
167	0x3c014b74	0.007891525
168	0xbbf485b8	-0.0074622296
169	0x3c34352c	0.010999005
170	0xbd161678	-0.03664252
171	0x3c5264e6	0.012841439
172	0x3d3bc050	0.0458377
173	0xbb8cc90b	-0.004296427
174	0xbd31364d	-0.043264676
175	0x3d1744ae	0.036930732
176	0x3d858e5c	0.065212935
177	0x3c24210e	0.0100176465
178	0x3a0d6f39	0.00053952966
179	0x3d634363	0.055484187
180	0x3ccb1792	0.024791513
181	0x3ccfe8fa	0.025379647
182	0x3d0d7637	0.034536567
183	0x3c22f625	0.009946381
184	0x3cedbccf	0.029020695
185	0x3d11249f	0.035435315
186	0xbca0c8b0	-0.019626945
187	0xbb9e10d2	-0.0048237825
188	0x3d2cf488	0.04222539
189	0x3d590d3e	0.052991144
190	0x3d2a8b07	0.041636493
191	0xbce86de0	-0.028372705
192	0x3d5b1fb7	0.053497043
193	0x3e120043	0.14257912
194	0xbd16c429	-0.036808167
195	0x3ce5643e	0.0280019
196	0x3c9809ed	0.01855942
197	0x3c3a0f30	0.01135616
198	0xbd1aeb3f	-0.037822004
199	0x3d5954bc	0.053059325
200	0x3cf73539	0.030176746
201	0x3c9fb8db	0.019497326
202	0x3e0c3b1c	0.13694423
203	0x3d1eea2c	0.038797542
204	0x3ce5b8d0	0.028042227
205	0xbca42594	-0.02003745
206	0xbc7ead0f	-0.01554419
207	0xbd5f32c4	-0.054491773
208	0xbd856179	-0.06512732
209	0x3c6c4946	0.014421767
210	0xbdebba93	-0.115101956
211	0xbd71f077	-0.059067216
212	0x3d582797	0.05277213
213	0xbbcfdffe	-0.0063438406
214	0x3c02458a	0.00795115
215	0x3d051a16	0.03249558
216	0xbd1db6c1	-0.038504366
217	0x3d50e9a0	0.051004052
218	0xbcc0630a	-0.023484726
219	0xbd71699e	-0.058938615
220	0x3e072de1	0.13201095
221	0x3cbb4f9f	0.022865115
222	0xbd1b260f	-0.037878092
223	0x3d9e3ba7	0.077262215
224	0x3cdf4fe2	0.02725977
225	0x3bf39928	0.007434029
226	0xbcb681fd	-0.02227878
227	0x3d965e65	0.07342223
228	0x3d597829	0.05309311
229	0xbb880eab	-0.004152139
230	0x3d3bd954	0.045861557
231	0x3d1601ad	0.036622692
232	0x3d33d0d9	0.043900345
233	0xbdd2fa21	-0.103016146
234	0x3d23bfb1	0.039977733
235	0xbd2a3d43	-0.04156233
236	0xbc8b0cb3	-0.016973829
237	0xbcba9886	-0.022777807
238	0xbc6bc9bc	-0.014391359
239	0xba3f0300	-0.0007286519
240	0x3bbf5568	0.0058390386
241	0x3c95c0ee	0.018280473
242	0xbc967b96	-0.018369477
243	0xbd1548a4	-0.03644623
244	0x3ca20820	0.019779265
245	0xbda1be20	-0.078975916
246	0xbbcbfc8e	-0.006225175
247	0x3e191745	0.14950283
248	0xbda76be9	-0.08174879
249	0x3da06ce5	0.0783327
250	0x3d889871	0.06669701
251	0xba049f1b	-0.0005059109
252	0xbd182f99	-0.037154768
253	0x3d370487	0.044682052
254	0x3c744bb7	0.01491063
255	0xbd85bc6d	-0.0653008

conv_layers.conv_3.bias f4 [64]
0	0xbce5f295	-0.028069774
1	0x3ce079a4	0.027401753
2	0x3d476ec2	0.04868961
3	0x3c51a211	0.012794987
4	0xbcd13213	-0.025536573
5	0xbc524725	-0.012834345
6	0xbbbfe7e3	-0.0058565005
7	0xbd0c984d	-0.034324933
8	0xbd33f9e4	-0.043939486
9	0xbbde1aab	-0.0067780814
10	0x3d64645b	0.05575977
11	0x3cd5d55c	0.026102714
12	0xbd0da92e	-0.03458517
13	0x3c6ef617	0.01458504
14	0x3cfb5205	0.030678758
15	0x3d0f7d48	0.035031587
16	0x3d357157	0.044297542
17	0x3cc18d26	0.023626875
18	0x3d29c27a	0.041445233
19	0x3d7684fb	0.060185414
20	0x3bf325e6	0.0074202893
21	0xbcc66984	-0.024220236
22	0x3c807d38	0.015684709
23	0x3c14d176	0.0090831425
24	0xbae66208	-0.0017576823
25	0x3cd6fd17	0.02624373
26	0xbd110536	-0.03540536
27	0x3b9d89e2	0.0048076967
28	0xbd12f632	-0.03587932
29	0xbca5dcb2	-0.020246837
30	0xbd0c7782	-0.03429366
31	0xbd10593a	-0.035241343
32	0xbcb3d363	-0.021951383
33	0x3d0e60c3	0.034760248
34	0xbcd1ded1	-0.025618942
35	0x3d34b334	0.044116214
36	0xbce7887f	-0.028263329
37	0x3c45b67f	0.012067436
38	0x3d136778	0.035987347
39	0x3a825f61	0.0009946638
40	0xb9b9f249	-0.00035466466
41	0x3d3c8185	0.046021957
42	0x3acc6ffd	0.001559734
43	0xbce02ff2	-0.027366612
44	0x3d158492	0.036503382
45	0x3d0e6290	0.034761965
46	0xbce3be43	-0.027800685
47	0x3c810ba7	0.015752627
48	0x3d3242b2	0.043520637
49	0xbd429409	-0.04750446
50	0x3b49e109	0.0030804297
51	0xbc2a880b	-0.010408412
52	0x3b605075	0.0034227644
53	0x3d2e1793	0.04250295
54	0x3ca20354	0.019776978
55	0xbcf1d442	-0.029520158
56	0xbbe6a1d4	-0.0070383344
57	0x3d099a3c	0.033594355
58	0x3cbabd9e	0.022795495
59	0x3d076294	0.033052996
60	0xbd19ec98	-0.03757915
61	0x3c46b683	0.012128475
62	0xbd2cfcc8	-0.04223326
63	0xbd17f662	-0.037100203

linear_layers.0.weight f4 [64, 576]
0	0xbd02d4f0	-0.031941354
1	0x3c90715a	0.017632175
2	0x3d004b5b	0.031321865
3	0xbde555e3	-0.11198022
4	0x3d9cc91a	0.076555446
5	0x3cdc4efa	0.026893128
6	0xbccc1687	-0.024913086
7	0x3ce89ca9	0.028395014
8	0xbcf48a0e	-0.029850986
9	0x3b479cb3	0.003045839
10	0x3c7f0699	0.015565538
11	0xb7b669ed	-2.1745416e-05
12	0xbd35d8b2	-0.04439611
13	0x3cdca7eb	0.026935538
14	0x3d26d8f0	0.04073423
15	0xbd06172f	-0.032736953
16	0x3d01023a	0.031496264
17	0x3d174a83	0.036936294
18	0x3cd06807	0.02544023
19	0xbd6577da	-0.056022502
20	0xbd1afece	-0.037840657
21	0x3cd30e22	0.025763575
22	0xbddf7e17	-0.109127216
23	0x3a01c92d	0.0004950937
24	0xbc08daf3	-0.008352983
25	0xbcae90f0	-0.021309346
26	0xbcfc6235	-0.030808548
27	0xbcb77aee	-0.022397485
28	0xbbbbc048	-0.005729709
29	0x3c966cb6	0.018362384
30	0xbcfa4756	-0.030551594
31	0xbc8fde50	-0.017562062
32	0xbd11423a	-0.03546355
33	0xbbc9b220	-0.0061552674
34	0x3b714250	0.0036813207
35	0xbd14026b	-0.03613512
36	0x3a96e630	0.0011512693
37	0xbd2cfb1f	-0.042231675
38	0xbd0398c1	-0.0321281
39	0x3d38e238	0.045137614
40	0xbc391cc9	-0.011298367
41	0xbd00b999	-0.031427
42	0x3ca92696	0.020648282
43	0x3ab00983	0.0013430569
44	0x3c9bdad8	0.019025251
45	0x3c66d433	0.014088678
46	0xbbdefa9d	-0.006804778
47	0xbaf11ac2	-0.0018394815
48	0xbcff4f82	-0.031165842
49	0x3cdd8d26	0.027044844
50	0xbc3be8d2	-0.011469083
51	0x3c8f6c4a	0.017507691
52	0x3c929fbc	0.017898433
53	0x3ca9bc25	0.020719597
54	0xbd6e42ae	-0.05816906
55	0x3af2d2ce	0.001852596
56	0xbce81174	-0.028328635
57	0x3b0c52e5	0.0021411714
58	0x3a2dd007	0.0006630425
59	0xbc3cf620	-0.01153329
60	0x3d15eb33	0.036601257
61	0x3cbbfda5	0.022948096
62	0xbcffd97f	-0.03123164
63	0x3d4e9661	0.05043638
64	0xbd0c704a	-0.034286775
65	0x3caff979	0.021481263
66	0x3d3d9cb8	0.046292037
67	0xbb9ecb35	-0.0048460015
68	0x3ccabee6	0.02474923
69	0xbc4c9b1c	-0.012488153
70	0x3d28e42e	0.041233234
71	0x3ba189b9	0.004929748
72	0xbcc6e5da	-0.024279524
73	0x3bb12954	0.005406538
74	0xbce316ce	-0.027720835
75	0xbd443353	-0.04790051
76	0x3beabcd7	0.0071636247
77	0x3bafae2b	0.0053613386
78	0x3d26b4fe	0.04069995
79	0xbc2f5d00	-0.010703325
80	0xbcbc8ab5	-0.02301536
81	0xbcacb918	-0.021084353
82	0x3d2d44ab	0.042301815
83	0xbc8b7f9a	-0.017028619
84	0xbc4467f2	-0.011987673
85	0x3d37ea86	0.044901393
86	0x3cbb9522	0.02289826
87	0xbc96eec9	-0.018424409
88	0x3cf51498	0.029917046
89	0xbd036d0d	-0.03208642
90	0xbad24665	-0.0016042708
91	0xbd7fab8b	-0.062419455
92	0x3a383737	0.00070272706
93	0x3d4b9e9f	0.04971182
94	0xbd8ad981	-0.06779767
95	0xbc1d2d98	-0.00959339
96	0xbbbe523f	-0.0058081443
97	0x3d04adfc	0.032392487
98	0x3d1b0790	0.03784901
99	0xbc2e3b2a	-0.010634223
100	0x3d4a06eb	0.049323004
101	0x3ae58d89	0.0017513494
102	0xbcb12439	-0.021623718
103	0xbaaf2f9c	-0.0013365629
104	0xbce95d7e	-0.028486963
105	0xbcd73675	-0.026271084
106	0x3cb32761	0.021869363
107	0xbccf173e	-0.025279637
108	0xbd87483c	-0.066055745
109	0xbc9a4fdf	-0.018836914
110	0xbcd3a3d2	-0.025834952
111	0x3c957aaf	0.018246977
112	0xbd191206	-0.037370704
113	0x3c928893	0.01788739
114	0x3d1e4834	0.038643077
115	0xbd2dc15a	-0.042420723
116	0x3c7c700e	0.015407575
117	0xbd5f035c	-0.054446563
118	0xbca93d20	-0.02065903
119	0x3d2582bf	0.040407892
120	0xbd43304a	-0.047653474
121	0xbc85a5d5	-0.016314426
122	0xbc0cc72c	-0.008592408
123	0x3c97d7db	0.018535545
124	0xba8619dd	-0.0010231097
125	0xbc1a112c	-0.009403508
126	0xbc9aadbb	-0.01888167
127	0xbcb0c1e2	-0.021576826
128	0xbcacb31d	-0.021081502
129	0x3d2b9a54	0.041895226
130	0xbc34ad67	-0.01102767
131	0x3d4e522d	0.050371338
132	0xbce4e1eb	-0.027939757
133	0x3cbf5fa3	0.023361033
134	0x395109f0	0.00019935495
135	0xbc2390e1	-0.009983272
136	0x3cb27be5	0.021787593
137	0x3d059ad3	0.032618355
138	0xbd0fbfe4	-0.03509511
139	0xbbcca149	-0.0062448126
140	0xbcd0b3ba	-0.025476325
141	0x3bdbe2c5	0.0067103826
142	0x3c6ab58a	0.014325509
143	0xbd4c0741	-0.049811605
144	0x3d3fcc88	0.046825916
145	0x3d0f9eb1	0.03506345
146	0xbb95d615	-0.0045726397
147	0x3cedbe93	0.029021537
148	0x3cbf09ca	0.023320097
149	0xbcf8834f	-0.03033605
150	0x3c555226	0.013020074
151	0xbc5cad7a	-0.013469094
152	0x3cab9363	0.020944303
153	0x3d81ea05	0.06343464
154	0xbd5e677a	-0.0542979
155	0xbd6082a9	-0.054812107
156	0xbb19bf26	-0.002345988
157	0xbd47379b	-0.048637014
158	0x3c0ebd70	0.008712158
159	0x3c624277	0.013809792
160	0xbcdb0a48	-0.0267383
161	0x3d202472	0.039097257
162	0xbcd2ee20	-0.025748312
163	0x3c7d31e7	0.015453792
164	0x3c81dd5e	0.015852626
165	0x3be8400d	0.0070877136
166	0x3d266f2d	0.04063337
167	0xbbae8ce6	-0.005326855
168	0xbc276113	-0.010216015
169	0x3cacb1f4	0.021080948
170	0x3d35c016	0.04437264
171	0x3d0fca9e	0.03510534
172	0xbdc3ad9f	-0.095546
173	0x3c5147f6	0.0127735045
174	0x3c088adc	0.008333888
175	0xbcc4cb3d	-0.024022693
176	0x3d38cf1a	0.045119382
177	0x3c31570e	0.010823978
178	0xbd1744d8	-0.03693089
179	0x3c9f3f69	0.019439416
180	0xbc5a94d9	-0.013341152
181	0xbc92d84d	-0.017925406
182	0x3b624164	0.003452384
183	0xbc048760	-0.008088917
184	0x3d0fbfbe	0.03509497
185	0xbd13579b	-0.03597222
186	0xbd0b1c19	-0.033962343
187	0x3d1ce99b	0.03830872
188	0x3d002530	0.031285465
189	0xbb88b06f	-0.004171423
190	0x3d21b53e	0.039479487
191	0x3cd6d262	0.026223365
192	0xbd59cb4a	-0.053172387
193	0x3d0c55d0	0.034261525
194	0xbb886b40	-0.004163176
195	0x3c93f826	0.018062662
196	0xbcf1d27f	-0.029519318
197	0x3cbc192b	0.02296122
198	0x3cf3af4a	0.02974667
199	0xbd1edebb	-0.03878663
200	0xbce31920	-0.027721941
201	0x3cd63c2a	0.026151735
202	0x3c5901dc	0.013245072
203	0x3d294cbb	0.04133294
204	0x3c902ed0	0.017600447
205	0x3b23c910	0.0024991669
206	0x3d1958f5	0.03743835
207	0xbc23bcac	-0.009993713
208	0x3c4a9da4	0.012366686
209	0x3c3052b0	0.010761902
210	0x3ce5213a	0.027969945
211	0x3bebcb58	0.0071958713
212	0xbce50e2b	-0.027960857
213	0x3ba3df68	0.0050009973
214	0x3d07117b	0.032975655
215	0x3cc3c446	0.023897301
216	0x3d893134	0.06698838
217	0xbd3c7c8f	-0.046017226
218	0x3bcf4c8c	0.006326264
219	0x3cc59dd7	0.024123115
220	0xbd7bc9d7	-0.061471786
221	0xbcd8c71e	-0.026462134
222	0xbcd1bb46	-0.025601994
223	0x3b1fcd59	0.0024383871
224	0x3cd28b54	0.025701202
225	0x3ca953c0	0.020669818
226	0x3d5112fd	0.0510435
227	0xbc8406de	-0.016116556
228	0xbca621b5	-0.020279745
229	0x3d46f8dc	0.048577175
230	0xbcf4ad03	-0.029867655
231	0xbcbf4d7a	-0.023352373
232	0xbc68fc85	-0.014220362
233	0x3cb7fbcb	0.022458931
234	0xbd227032	-0.03965778
235	0x3d1318cf	0.03591233
236	0x3cf0932c	0.029367052
237	0x3c3a5931	0.011373804
238	0x3c2dfd63	0.010619494
239	0x3ca3f983	0.020016437
240	0xbbe02271	-0.0068400432
241	0xbc23693d	-0.009973821
242	0xbb1f90c3	-0.002434776
243	0x3cb73d4e	0.0223681
244	0xbb9f40aa	-0.0048600035
245	0x3d4feb49	0.050761495
246	0x3c5294cc	0.012852859
247	0xbcf91d30	-0.030409425
248	0x3c44caf5	0.012011279
249	0xbc63aa13	-0.013895529
250	0xbcb023ff	-0.02150154
251	0x3d01bcc2	0.031674154
252	0xbd7e7a28	-0.062128216
253	0x3ced7e7f	0.028990982
254	0x3d1b7dcc	0.037961766
255	0xbcb2dc37	-0.021833522

linear_layers.0.bias f4 [64]
0	0xbce1e829	-0.027576523
1	0xbcac0951	-0.021000536
2	0xba483f10	-0.00076387916
3	0x3ce0729b	0.027398398
4	0xbc90a202	-0.017655376
5	0x3bc0a78d	0.0058793486
6	0xbaff3b60	-0.0019472651
7	0x3d2afc1d	0.04174434
8	0xbd16cfb6	-0.036819182
9	0x3cb658f5	0.022259215
10	0xbd1a36b8	-0.03764984
11	0x3d2d7c3a	0.0423548
12	0x3c6e3942	0.0145400185
13	0x3cb98ea9	0.022651033
14	0xbd19ba55	-0.037531216
15	0x3c06399d	0.008192447
16	0xbd091bcf	-0.033473786
17	0xbd21efb0	-0.039535224
18	0x3bc96bc7	0.0061468813
19	0xbd11512e	-0.03547781
20	0xbcbe5dcc	-0.023238085
21	0x3cec3c02	0.028837208
22	0x3d159deb	0.036527555
23	0x3c61f1ae	0.013790531
24	0xbc5e0a7c	-0.013552304
25	0x3c348dde	0.011020152
26	0xbc015b91	-0.007895366
27	0x3ce8c677	0.028414948
28	0xbcf1255c	-0.02943676
29	0xbc7d11e0	-0.015446156
30	0x3cd83292	0.026391301
31	0x3d0b8e96	0.034071527
32	0xbc088671	-0.008332835
33	0x3d29c625	0.04144873
34	0x3bf13e0b	0.0073621324
35	0xbc610931	-0.013735102
36	0x3c484f70	0.012225971
37	0x3ca11d8d	0.019667411
38	0x3bdf146e	0.0068078553
39	0x3cdc43fa	0.026887883
40	0x3c81b8b4	0.015835144
41	0x3af63d64	0.0018786606
42	0xbd166031	-0.03671283
43	0x3af19208	0.0018430362
44	0x3cdb964a	0.026805062
45	0xbc8435cc	-0.016138934
46	0x3ca70f3b	0.020393005
47	0x3b61c813	0.003445153
48	0xbbb0e2b1	-0.0053981175
49	0x3ce58b28	0.028020456
50	0xbd09666e	-0.03354495
51	0xbd07531c	-0.033038244
52	0x3c95f78c	0.018306516
53	0x3d2ae8af	0.04172581
54	0xbd04919c	-0.032365426
55	0xbc46b35b	-0.012127723
56	0x3ca2503a	0.019813646
57	0x3cb5693c	0.022144906
58	0xbd00c6ba	-0.03143952
59	0x3c8a8476	0.016908865
60	0xbcaf7893	-0.021419799
61	0x3d095353	0.03352673
62	0x3d2c21e7	0.04202452
63	0x3944eb49	0.00018779667

linear_layers.2.weight f4 [32, 64]
0	0xbdbfc892	-0.093644276
1	0xbdf342fa	-0.11878009
2	0x3d8c3866	0.06846695
3	0x3dcab8ed	0.09898553
4	0x3da30172	0.0795926
5	0xbcd07747	-0.0254475
6	0xbdb7e6b4	-0.0897955
7	0xbdd4269f	-0.10358929
8	0xbb81b025	-0.0039577656
9	0xbe0cee6d	-0.13762827
10	0x3a815dba	0.0009869852
11	0x3d586707	0.05283263
12	0x3d2c82bd	0.04211687
13	0xbdd7fe38	-0.10546535
14	0xbc973be0	-0.018461168
15	0xbd6ddac0	-0.058069944
16	0xbd4dcc1f	-0.050243493
17	0x3d03e791	0.03220326
18	0xbc236530	-0.009972855
19	0x3dba4564	0.090952665
20	0xbdf61374	-0.12015429
21	0xbd8493e1	-0.06473518
22	0x3e0046b9	0.12526979
23	0xbdf96133	-0.121767424
24	0x3d44df7c	0.048064694
25	0xbd31c27d	-0.04339837
26	0xbd101de9	-0.035184775
27	0x3b3b09e1	0.0028539824
28	0xbcecd403	-0.028909689
29	0xbb513c2b	-0.0031926732
30	0xbd9b58e5	-0.07585315
31	0xbbc1c860	-0.005913779
32	0x3e0607e9	0.13088955
33	0x3ce00a4c	0.02734866
34	0xbbf72e21	-0.007543341
35	0x3de64be4	0.11244944
36	0x3d1bfaba	0.03808091
37	0xbd1fb1aa	-0.038987793
38	0xbd813f46	-0.063108966
39	0xbdbcaae4	-0.09212282
40	0x3b5161a7	0.0031949074
41	0xbcd27b28	-0.025693491
42	0xbdc6253c	-0.09675071
43	0x3d823bc3	0.06359055
44	0xbd961652	-0.07328476
45	0xba542b46	-0.00080936064
46	0x3db02860	0.08601451
47	0x3dc4348a	0.095803335
48	0x3dea0fff	0.11428832
49	0xbd4f152c	-0.0505573
50	0xbc2ccb9c	-0.010546591
51	0xbc00391d	-0.007826117
52	0x3c97b0ab	0.018516859
53	0xbd7b15d5	-0.061300118
54	0xbd6b55b9	-0.0574548
55	0x3dbca942	0.09211971
56	0x3c9dac91	0.019247325
57	0x3cb08d55	0.021551767
58	0x3d07782a	0.03307358
59	0x3d331cbf	0.043728586
60	0xbdadc4f2	-0.0848483
61	0x3dbe7243	0.092991374
62	0x3dd270ec	0.102754444
63	0xbdd69b24	-0.104788095
64	0x3d2c43b8	0.04205677
65	0xbdceabb4	-0.100913435
66	0x3d8290a8	0.06375247
67	0xbd3ce142	-0.04611326
68	0xbded5792	-0.11588968
69	0xbde82572	-0.11335267
70	0xbcb9d392	-0.022683892
71	0x3cff560b	0.031168958
72	0xbde833ab	-0.1133798
73	0xbdc65dc0	-0.0968585
74	0xbdf14e9e	-0.11782573
75	0x3da9fe06	0.08300404
76	0x3dc97d36	0.09838335
77	0x3cb34910	0.021885425
78	0x3dd23648	0.102642596
79	0x3c995ad8	0.018720075
80	0xbd9630aa	-0.07333501
81	0x3d3160e8	0.043305308
82	0x3ca044fe	0.019564148
83	0x3d87eca0	0.066369295
84	0x3d0b9604	0.034078613
85	0x3df72b62	0.120688215
86	0xbd333611	-0.043752734
87	0x3c2001ea	0.009766081
88	0xbd8d7378	-0.069067895
89	0x3daae9bf	0.08345365
90	0xbd8ee56e	-0.06977354
91	0x3d8824a6	0.06647615
92	0x3d5edfac	0.05441253
93	0xbddf148e	-0.10892592
94	0xbb011316	-0.0019695214
95	0xbb1066f1	-0.0022034014
96	0x3c9c3f44	0.019073136
97	0xbd0ca860	-0.034340262
98	0x3ddc2d37	0.107508115
99	0x3c86cb10	0.01645425
100	0xbb8a210f	-0.0042153667
101	0x3c16c85c	0.009203043
102	0xbd4c369a	-0.04985676
103	0xbdc5d911	-0.09660543
104	0xbd44178d	-0.047874022
105	0x3d0fd5dc	0.03511606
106	0xbdc1e866	-0.094681546
107	0xbda395d7	-0.07987564
108	0x3c6e3ee7	0.014541364
109	0x3dbad620	0.09122872
110	0xbc859db0	-0.016310543
111	0x3d99bcf0	0.0750674
112	0x3d52d894	0.051476076
113	0xbdb46b15	-0.08809487
114	0x3dbcb460	0.09214091
115	0xbd8c2cc6	-0.06844477
116	0xbdffb548	-0.124857485
117	0x3df2e848	0.118607104
118	0x3d305230	0.04304713
119	0xbdd80082	-0.10546972
120	0x3dcf678f	0.10127174
121	0xbdd0dd9e	-0.1019852
122	0xbd87b2b0	-0.06625879
123	0xbcd3c0c5	-0.025848756
124	0x3d9cd2b8	0.07657379
125	0x3d357cdc	0.04430853
126	0xbdb782f8	-0.08960527
127	0x3ccdec10	0.025136977
128	0x3da5d1f7	0.08096688
129	0x3dc0b2ba	0.094090894
130	0x3dd21a30	0.10258901
131	0xbb0d06e3	-0.0021518997
132	0x3dc4e725	0.096144
133	0xbdc2d24d	-0.09512768
134	0xbdc49fe3	-0.096008085
135	0x3df36d0c	0.118860334
136	0x3ddfb096	0.10922353
137	0x3e0a7be0	0.13523817
138	0xbd5730a0	-0.052536607
139	0x3bd1e132	0.006405019
140	0x3d8a1628	0.06742507
141	0xbcb6c98c	-0.022312902
142	0xbda8ad6e	-0.08236204
143	0xbb2ec177	-0.0026665607
144	0x3da3caaf	0.07997643
145	0x3d785070	0.060623586
146	0xbd445b6a	-0.04793874
147	0xbcf2e7e7	-0.029651595
148	0x3d826e0a	0.063686445
149	0xbc9b214f	-0.018936781
150	0x3c8204d1	0.015871437
151	0xbc6eb74b	-0.014570068
152	0x3d9aaff8	0.075530946
153	0xbc9c4791	-0.019077094
154	0x3d1bfc31	0.038082305
155	0x3d90603b	0.070496045
156	0x3dccb7cc	0.09995994
157	0x3d2c6a75	0.042093713
158	0x3dbc4a07	0.09193807
159	0x3c4574df	0.01205179
160	0x398c18d0	0.00026721368
161	0x3d7f5856	0.062340103
162	0x3da37329	0.079809494
163	0xbceefd5f	-0.029173551
164	0x3c9d08bc	0.019169204
165	0xbd73d004	-0.05952455
166	0xbcb393a1	-0.02192098
167	0xbe17ef86	-0.14837465
168	0xbb1672a5	-0.0022956517
169	0x3d46eac0	0.04856372
170	0xbd8f0694	-0.069836766
171	0x3de63c43	0.11241963
172	0x3e070623	0.13185935
173	0xbd16bf75	-0.03680368
174	0x3d3bfea4	0.04589714
175	0xbd70d4ba	-0.05879662
176	0x3e15a042	0.14611915
177	0x3ddc115c	0.107454985
178	0x3c77dcd3	0.015128332
179	0x3e10af2f	0.14129327
180	0x3ce61e91	0.028090747
181	0x3d0fff67	0.03515568
182	0xbd1ea2e9	-0.038729582
183	0x3d10695a	0.03525672
184	0x3d6c3eb5	0.05767699
185	0x3cdf557b	0.02726244
186	0xbdbc1a2e	-0.09184681
187	0x3d92813b	0.07153555
188	0xbda876de	-0.08225797
189	0xbdf18694	-0.11793247
190	0xbc8da3a6	-0.017289948
191	0x3d03c4c2	0.032170065
192	0x3d57034d	0.052493382
193	0xbda3eeec	-0.08004555
194	0x3dcef1ee	0.10104738
195	0x3e20e162	0.15710977
196	0xbc092d52	-0.008372622
197	0x3de6899a	0.11256714
198	0xbce4359b	-0.027857592
199	0xbd866e85	-0.06564049
200	0x3d43fb50	0.047847092
201	0xbd538a62	-0.051645644
202	0x3d99bc21	0.07506586
203	0x3d84ddb0	0.06487596
204	0xbd20266e	-0.03909915
205	0x3cc4752e	0.023981657
206	0xbdbf9b24	-0.093557626
207	0x3e0070cf	0.12543033
208	0x3d17863c	0.03699325
209	0x3ca1f9b3	0.019772386
210	0x3daf8110	0.085695386
211	0xbcb42347	-0.021989478
212	0xbc25cfd5	-0.010120352
213	0x3d39bc16	0.04534539
214	0x3d240328	0.040042073
215	0x3db304d3	0.087411545
216	0xbde5514a	-0.11197145
217	0x3b8af07c	0.0042400938
218	0xbda31471	-0.07962883
219	0x3e0da064	0.13830715
220	0xbda64be0	-0.08119941
221	0x3cea44d5	0.028597275
222	0xbd5f3e5e	-0.054502837
223	0xbd6d0c0a	-0.05787281
224	0x3dbcf8cf	0.09227144
225	0x3e12b135	0.14325412
226	0xbd95f60a	-0.07322319
227	0x3d38bc7b	0.045101624
228	0xbd2a9834	-0.04164906
229	0x3de6f957	0.112780266
230	0xbd4c8260	-0.049929023
231	0xbd878af3	-0.06618299
232	0xbd566532	-0.0523426
233	0xbdecdc92	-0.11565508
234	0xbd45daec	-0.048304483
235	0x3c844274	0.016144969
236	0xbdab1996	-0.083544895
237	0x3db94e45	0.09048132
238	0x3d8d3382	0.0689459
239	0xbd1f569d	-0.03890096
240	0x3daff083	0.08590796
241	0xbdd74052	-0.10510315
242	0xbc6317d5	-0.0138606625
243	0x3dba586e	0.09098898
244	0x3cdd39e7	0.027005149
245	0x3da4f599	0.080546565
246	0x3df90fa4	0.12161186
247	0x3d1ceffc	0.038314804
248	0x3d8dd30b	0.06925019
249	0x3c99077b	0.018680325
250	0x3d9f9825	0.07792691
251	0x3a3382d9	0.0006847806
252	0x3c1899f0	0.009314045
253	0x3db228d8	0.086991966
254	0x3dbda2b4	0.09259549
255	0x3dd98ee3	0.106229566

linear_layers.2.bias f4 [32]
0	0xbdee2fba	-0.11630197
1	0x3bf3700c	0.0074291285
2	0xbc7fde84	-0.015617017
3	0xbd5e1198	-0.054215997
4	0x3ba5f365	0.0050644153
5	0xbd73050d	-0.05933099
6	0xbbef76c0	-0.0073078573
7	0x3cb197ef	0.021678893
8	0xbddf777e	-0.10911463
9	0x3d5e49d3	0.054269623
10	0xbd876d25	-0.066126145
11	0x3ddc1e8c	0.10748014
12	0xbdb8e289	-0.09027583
13	0xbda9ace9	-0.08284933
14	0x3d64c5e2	0.05585278
15	0xbdee6e41	-0.11642123
16	0x3dd9105c	0.105988234
17	0xbc905a53	-0.017621195
18	0x3df2fc47	0.11864524
19	0x3defd917	0.117113285
20	0xbd25f2b9	-0.04051468
21	0xbdce54ac	-0.10074744
22	0x3c9661ec	0.01835724
23	0x3d4315ef	0.04762834
24	0x3d830bfc	0.0639877
25	0xbda218f3	-0.07914915
26	0x3ba0045d	0.0048833326
27	0xbde873ca	-0.1135021
28	0xbcb7481c	-0.022373252
29	0x3dca70cf	0.09884798
30	0xbdc9679c	-0.09834215
31	0xbdf4d8e0	-0.11955428
